resources/goals_net/example.pt (torch, 186655 bytes, 60 tensors)

weight f4 [64, 26]
-0.28224117 0.15045927 0.19505371 -0.25619173 0.109841615 -0.17682944 0.24655354 0.07447852
0.19724257 -0.2262142 -0.09378557 0.2570209 -0.1374489 0.014364011 -0.026561866 -0.04301008
-0.15564424 0.11636237 0.02241905 -0.0679182 -0.22296497 -0.026934108 -0.01077069 -0.032447476
-0.13218561 -0.118659966 0.27115944 -0.038707763 0.010903907 -0.076708816 -0.104668394 0.2995222
0.11448404 0.19633868 0.040774323 -0.089095704 0.3474602 0.1097334 -0.0149931405 -0.042475965
-0.037463617 0.03018432 0.1467951 0.035444222 0.14416096 -0.08135377 0.038939856 -0.013854844
0.00956976 0.16680795 -0.045288965 0.29284322 0.007972768 0.15105046 0.47618777 0.20257571
0.033290498 0.44713643 0.06854388 0.10304789 -0.083016895 -0.26956344 -0.024997588 0.3944016
-0.21423966 -0.036401216 0.12860078 0.11788722 0.123314306 0.021608174 0.023698688 0.030142302
0.06435828 -0.07246587 0.084058315 0.10205304 0.16624823 -0.44139925 -0.0010450328 -0.42410296
-0.3913627 0.20345251 -0.10764771 -0.18294695 -0.30883336 0.03773397 -0.015610882 0.04210382
0.026026754 -0.07121912 -0.10557345 0.00022839542 -0.007388286 0.02928577 0.12220734 -0.18184774
0.14024022 0.13833483 0.031792082 0.0060711103 -0.061950844 -0.035910085 0.052079037 -0.33936253
0.01540297 0.028327925 -0.05381373 0.103414565 0.0044771596 -0.09854185 0.1505451 0.093834095
-0.11465306 -0.09005872 -0.12992494 -0.4499194 -0.15355998 0.039817296 -0.09374669 -0.23314482
0.045246225 -0.008530719 0.07219587 -0.21680942 -0.19581597 -0.18286519 -0.1764527 0.048258804
-0.20350046 -0.0020693673 -0.13755104 -0.1589405 0.26848546 -0.06999384 -0.024348972 -0.018906945
-0.23136988 0.039322373 -0.29455912 -0.13516033 -0.060651343 0.09230706 -0.023770466 -0.09006929
-0.4009082 -0.25331128 0.083000466 -0.20306239 0.47295034 0.053992268 -0.09687634 0.0070886873
0.028710993 -0.03309323 -0.09126704 0.2044313 0.054128796 -0.12897001 0.26323164 0.014510213
0.08461329 0.46441945 -0.51926035 -0.11824842 0.12584294 -0.2712199 0.039434012 0.16786142
0.28141525 -0.22747289 0.065480165 0.01724771 0.0075841737 -0.10016463 -0.14239022 0.028282695
-0.14699227 0.030087732 -0.36162966 -0.047809962 -0.06567157 0.122457914 0.11478714 0.09131403
0.050563693 0.14885311 -0.008639453 0.20366912 0.11008379 0.19756529 0.14438102 -0.25218934
-0.00039010943 0.056228697 0.26767924 0.033202507 0.060410805 -0.16189936 -0.30750993 0.17864187
0.13155974 -0.458802 -0.012035434 0.033729214 -0.24865901 -0.109007545 -0.008318702 0.23762679
0.293244 -0.17725092 0.020223992 -0.022197604 -0.009540707 -0.13834098 0.07433947 -0.03861078
-0.007038609 0.18653525 0.011144415 0.01938972 0.015045791 0.22795217 -0.17990723 0.0037150928
-0.1109387 0.13498108 -0.18322112 0.1402823 0.13929416 0.030752193 -0.038610734 0.028508624
0.24442147 -0.6241966 -0.1189548 -0.071780965 0.5532366 -0.09824467 -0.033964355 0.34498325
0.12973937 -0.0076161013 -0.113988176 0.33013615 -0.038905833 0.20118499 0.36653793 0.0063297567
-0.040052738 0.07564711 -0.045728896 0.052272253 -0.09708165 -0.036267776 0.122936375 -0.0112660695
00000000: ea81 90be ff11 1a3e 29bc 473e 902b 83be
00000010: a4f4 e03d c712 35be 8878 7c3e 3288 983d
00000020: f5f9 493e b2a4 67be a612 c0bd 3e98 833e
00000030: 68bf 0cbe 0757 6b3c 4598 d9bc 562b 30bd
00000040: 3461 1fbe 654f ee3d 28a8 b73c b218 8bbd
00000050: ee50 64be eba4 dcbc 8c77 30bc a5e7 04bd
00000060: aa5b 07be ff03 f3bd 69d5 8a3e 088c 1ebd
00000070: 4da6 323c 8319 9dbd 625c d6bd f95a 993e
00000080: 9c76 ea3d 020d 493e fa02 273d cf77 b6bd
00000090: 4ee6 b13e e8bb e03d caa5 75bc 47fb 2dbd
000000a0: 7373 19bd 1b45 f73c 7451 163e f62d 113d
000000b0: ee9e 133e ce9c a6bd 667f 1f3d 6dff 62bc
000000c0: 7cca 1c3c b4cf 2a3e ec80 39bd 8cef 953e
000000d0: 36a0 023c f9ac 1a3e e2ce f33e 0270 4f3e
000000e0: 9e5b 083d 11ef e43e bc60 8c3d c60a d33d
000000f0: c304 aabd 3804 8abe bec7 ccbc 02ef c93e
00000100: a461 5bbe 7119 15bd ecaf 033e db6e f13d
00000110: 368c fc3d a003 b13c c023 c23c fdec f63c
00000120: 46ce 833d fc68 94bd c426 ac3d 2f01 d13d
00000130: fa3c 2a3e 15ff e1be 7bf9 88ba 0624 d9be
00000140: b160 c8be db55 503e 6776 dcbd 7256 3bbe
00000150: 681f 9ebe ef8e 1a3d c9c4 7fbc 0e75 2c3d
00000160: 0f36 d53c 54db 91bd e536 d8bd 6e7d 6f39
00000170: 6f19 f2bb b6e8 ef3c d847 fa3d 4b36 3abe
00000180: 229b 0f3e a5a7 0d3e 6a38 023d 2af0 c63b
00000190: 2bc0 7dbd 7416 13bd d450 553d edc0 adbe
000001a0: bd5c 7c3c f70f e83c c96b 5cbd 04cb d33d
000001b0: 23b5 923b 4fd0 c9bd 7f28 1a3e 172c c03d
000001c0: 39cf eabd b570 b8bd 0b0b 05be d65b e6be
000001d0: d43e 1dbe 7617 233d 44fe bfbd 84bd 6ebe
000001e0: 1b54 393d 6ec4 0bbc 6edb 933d 4a03 5ebe
000001f0: fb83 48be 0341 3bbe 04b0 34be 06ab 453d
00000200: 6d62 50be 399e 07bb 2eda 0cbe 4cc1 22be
00000210: ed76 893e ee58 8fbd 7f77 c7bc bde2 9abc
00000220: 3aec 6cbe 7f10 213d 74d0 96be 7867 0abe
00000230: 8b6d 78bd 7c0b bd3d 48ba c2bc 3f76 b8bd
00000240: d743 cdbe 04b2 81be 26fc a93d 96ef 4fbe
00000250: 8c26 f23e ff26 5d3d 1a67 c6bd 3848 e83b
00000260: 5133 eb3c c48c 07bd 37ea babd 7056 513e
00000270: 28b6 5d3d b710 04be 4cc6 863e 3fbc 6d3c
00000280: bc49 ad3d 63c8 ed3e 3fee 04bf 3a2c f2bd
00000290: f9dc 003e 56dd 8abe 8f85 213d dde3 2b3e
000002a0: a915 903e a7ee 68be 771a 863d 124b 8d3c
000002b0: a984 f83b 1d23 cdbd bece 11be 1cb1 e73c
000002c0: 2485 16be 8c7a f63c 8627 b9be 61d4 43bd
000002d0: d17e 86bd 37cb fa3d 8515 eb3d da02 bb3d
000002e0: e01b 4f3d f36c 183e 7e8c 0dbc a38e 503e
000002f0: 9c73 e13d 8e4e 4a3e 9ed8 133e f61e 81be
00000300: 9a87 ccb9 1050 663d 410d 893e 5aff 073d
00000310: 5271 773d f2c8 25be f171 9dbe e5ed 363e
00000320: 99b7 063e 19e8 eabe 4530 45bc a527 0a3d
00000330: 78a0 7ebe 593f dfbd 2a4b 08bc 7054 733e
00000340: 1424 963e 4481 35be c9ac a53c c0d7 b5bc
00000350: a050 1cbc 42a9 0dbe 4b3f 983d 5626 1ebd
00000360: 22a4 e6bb 1903 3f3e 1097 363c 31d7 9e3c
00000370: 9f82 763c 4b6c 693e 9a39 38be ea78 733b
00000380: d433 e3bd 7b38 0a3e 519e 3bbe 2aa6 0f3e
00000390: 21a3 0e3e 06ec fb3c 4a26 1ebd eb8a e93c
000003a0: 9f49 7a3e 59cb 1fbf 939e f3bd e601 93bd
000003b0: eaa0 0d3f 8034 c9bd 351e 0bbd a5a1 b03e
000003c0: 66da 043e 7d90 f9bb a272 e9bd 9b07 a93e
000003d0: b95b 1fbd 7003 4e3e dcaa bb3e d969 cf3b
000003e0: 570e 24bd dfec 9a3d 394e 3bbd 6e1b 563d
000003f0: bed2 c6bd 858d 14bd 11c6 fb3d 5295 38bc

bias f4 [64]
0.041799344 0.30693424 0.39253393 -0.4267355 -0.09285345 -0.06530106 0.51409364 0.30520198
-0.03352115 0.36722505 -0.0139247775 0.010865368 -0.12017064 0.5110322 -0.299846 -0.012564965
0.40689787 -0.24731919 -0.48560825 -0.4745554 -0.09583941 -0.08831513 -0.24732725 0.34693184
-0.5121079 -0.20419706 -0.5193513 0.6591352 0.76486766 0.5802596 0.22287615 -0.21581915
0.45969975 0.43481812 0.57341874 0.4669909 0.44352487 0.42912024 0.5296402 0.56673604
-0.24073 0.24181302 0.610751 0.62425923 0.5524428 0.32011676 0.5150004 -0.12428601
-0.05794074 -0.36545968 0.45846838 -0.20787247 0.4795993 -0.033519693 -0.10790959 0.6402596
-0.37477055 -0.038287498 0.41165128 -0.4733972 0.55861014 -0.13883516 -0.28880033 -0.1802237
00000000: ca35 2b3d 7c26 9d3e 35fa c83e 137d dabe
00000010: f329 bebd 90bc 85bd a49b 033f 6f43 9c3e
00000020: 794d 09bd ec04 bc3e c024 64bc a804 323c
00000030: 061c f6bd 02d3 023f 6a85 99be 48dd 4dbc
00000040: eb54 d03e 3e41 7dbe a5a1 f8be edf8 f2be
00000050: 7447 c4bd 90de b4bd 5b43 7dbe 0da1 b13e
00000060: 8119 03bf 0919 51be 35f4 04bf 16bd 283f
00000070: 5ece 433f e58b 143f a539 643e b2ff 5cbe
00000080: c45d eb3e 7ba0 de3e 92cb 123f 6e19 ef3e
00000090: b115 e33e a6b5 db3e 8096 073f 9d15 113f
000000a0: ed81 76be d59d 773e 2d5a 1c3f 74cf 1f3f
000000b0: e46c 0d3f 58e6 a33e 11d7 033f aa89 febd
000000c0: 4553 6dbd 881d bbbe 5ebc ea3e 85dc 54be
000000d0: 0a8e f53e f24b 09bd b4ff dcbd 0ee8 233f
000000e0: ede1 bfbe 5ad3 1cbd f5c3 d23e 1e61 f2be
000000f0: 1301 0f3f ce2a 0ebe a3dd 93be 908c 38be

weight f4 [64]
0.96011484 0.9409856 0.96194947 0.88405925 0.97972685 0.9874373 0.9804278 0.899619
1.0710974 1.0004126 1.0275239 1.0029796 1.0120004 1.00289 0.9723741 1.0029721
0.92037785 1.0015241 1.0419909 1.0254133 0.9826415 0.99705166 1.0124211 0.8501682
1.2266687 1.0156579 0.9727744 0.98922354 0.98644835 1.023393 0.9615953 0.98492616
0.84431225 0.95674413 0.9984451 0.8853424 0.9520019 0.9980391 1.0057626 0.9810931
0.95384365 1.1144655 1.0345759 1.0473531 1.0070095 0.8965301 0.97906846 1.0019552
1.0138974 1.033183 0.9711967 0.84869254 0.82376516 1.0152563 1.0175577 0.9550772
0.9189863 1.0242021 0.98509467 1.1080214 0.89556867 0.9955504 0.9905408 1.0199089
00000000: 16ca 753f 6fe4 703f 5242 763f b551 623f
00000010: 61cf 7a3f b1c8 7c3f 51fd 7a3f 6e4d 663f
00000020: b819 893f 850d 803f e785 833f a361 803f
00000030: 3b89 813f b35e 803f 82ed 783f 6461 803f
00000040: e29d 6b3f f131 803f f55f 853f be40 833f
00000050: 658e 7b3f c73e 7f3f 0497 813f a0a4 593f
00000060: 7b03 9d3f 1401 823f be07 793f c13d 7d3f
00000070: e187 7c3f 8bfe 823f 1c2b 763f 1f24 7c3f
00000080: d924 583f 2fed 743f 199a 7f3f cda5 623f
00000090: 66b6 733f 7e7f 7f3f d4bc 803f eb28 7b3f
000000a0: 192f 743f cea6 8e3f fc6c 843f ab0f 863f
000000b0: b0e5 803f ff82 653f 3ba4 7a3f 1140 803f
000000c0: 64c7 813f 573f 843f 59a0 783f ea43 593f
000000d0: 46e2 523f ebf3 813f 553f 823f f07f 743f
000000e0: b042 6b3f 0e19 833f 2a2f 7c3f a5d3 8d3f
000000f0: fd43 653f 64dc 7e3f 1594 7d3f 608c 823f

bias f4 [64]
0.06205558 0.015048696 0.0013758608 -0.006279078 -0.043411724 -0.023594905 0.07491792 -0.005247039
0.0046481523 0.017047154 -0.0196667 -0.0017637473 -0.05776635 0.03948919 0.0040345658 -0.043872412
0.04308068 -0.00822573 -0.06336576 -0.07591901 0.023817923 -0.010682612 -0.04517047 0.043855753
-0.06708837 -0.019975971 -0.11257105 0.047836453 0.10323471 0.07051184 0.03639542 -0.04872473
0.040324245 -0.03275924 0.040971372 0.019861277 0.052107804 0.06072337 0.051828906 0.07072598
-0.029888347 0.077149995 0.07828741 0.048243377 0.06392625 0.04633317 0.04052364 -0.03816654
-0.05382642 -0.080123976 0.04941198 -0.03679005 0.06248585 -0.016187869 0.033232216 0.079757266
-0.065242805 -0.061942216 0.06936023 -0.08811433 0.0980636 -0.024236461 -0.061254602 -0.028763581
00000000: fe2d 7e3d ce8e 763c 3a56 b43a b9c0 cdbb
00000010: 7ed0 31bd 1a4a c1bc 916e 993d 5aef abbb
00000020: 874f 983b 79a6 8b3c 0f1c a1bc 8a2d e7ba
00000030: 699c 6cbd 6bbf 213d 6434 843b 8fb3 33bd
00000040: 5e75 303d 36c5 06bc e8c5 81bd 6d7b 9bbd
00000050: ce1d c33c 1f06 2fbc ac04 39bd 17a2 333d
00000060: a165 89bd a6a4 a3bc a78b e6bd 28f0 433d
00000070: b86c d33d 8368 903d 5d13 153d 9593 47bd
00000080: 092b 253d 8e2e 06bd 99d1 273d 1eb4 a23c
00000090: fe6e 553d 12b9 783d 8c4a 543d c8d8 903d
000000a0: 68d8 f4bc d100 9e3d 2655 a03d d99a 453d
000000b0: c4eb 823d dac7 3d3d 1efc 253d 8554 1cbd
000000c0: 1879 5cbd 0a18 a4bd 3764 4a3d 2ab1 16bd
000000d0: 2af1 7f3d 6c9c 84bc 811e 083d c757 a33d
000000e0: 059e 85bd 1fb7 7dbd bc0c 8e3d 4975 b4bd
000000f0: 92d5 c83d 8b8b c6bc 1be6 7abd 9aa1 ebbc

weight f4 [64, 64]
0.03933733 -0.062298927 0.043047097 0.1688941 -0.20550773 0.17539169 -0.13145068 -0.26604047
-0.007429704 -0.28544465 0.026312968 0.17924462 0.20695613 -0.24075298 0.287516 -0.1915265
-0.06764721 0.2470439 0.29515496 0.2895257 0.34442747 -0.061197586 0.1349613 0.00876927
0.4664732 0.09014503 0.053641446 -0.023915516 0.08687241 -0.035408724 -0.33680728 0.054772846
-0.560864 -0.36650425 -0.21667197 -0.019400313 0.21674344 -0.1360884 -0.23592022 0.08780639
0.2615304 -0.23320124 0.0862199 -0.03788065 -0.11317652 -0.2084683 -0.20544912 -0.05717784
-0.07159877 0.13101077 -0.18913768 0.41051987 0.1664228 -0.04958987 -0.04415586 -0.17230822
-0.0077079106 0.276707 0.055922642 0.1537006 -0.35900658 -0.09349496 -0.04865492 -0.10070352
0.21021119 0.11474905 -0.087191656 0.1578275 -0.061587583 0.22653145 0.30044475 0.14950025
0.107311405 0.089709625 0.18787488 -0.3310106 0.093089096 0.36515254 -0.15606573 -0.121403344
-0.14368257 0.43834642 0.08902623 -0.10475613 0.00509533 0.104263514 0.0013957625 -0.06023862
0.12349699 0.19207689 -0.19489183 0.32069606 -0.23645817 0.055769857 -0.08450346 0.073487975
0.089780316 0.07242752 0.20294788 0.054232538 0.32652807 0.06727344 0.21260259 -0.042264555
0.17086783 -0.32079726 0.024549074 -0.009761273 -0.27117485 0.118831426 -0.016973343 -0.17152616
-0.07868567 -0.14483084 0.06262839 -0.12757449 -0.16706675 -0.101719275 -0.055899363 -0.19665845
-0.1378934 0.1427306 -0.06895321 -0.19498716 0.22880873 -0.20635857 0.03239096 -0.21655272
0.23331814 -0.21561982 -0.124280855 -0.001317946 -0.19870442 -0.004069405 -0.31849778 -0.071038425
0.3061532 -0.17151645 0.0021955657 -0.05764503 0.13499853 -0.09882792 0.24417955 0.06687737
-0.15177336 0.051150236 0.18524039 0.03467267 -0.10949015 0.055491008 -0.09981366 0.28965256
0.23275273 0.23424847 -0.08722327 -0.07552136 0.12963474 -0.13613048 0.032131456 0.19807097
0.05524241 0.22624864 -0.016510207 0.296551 0.13515544 0.041424222 -0.3604809 -0.24709031
-0.16459346 -0.17000353 -0.0046292036 0.3840599 -0.124245204 -0.24058391 -0.35959235 0.07143157
-0.018257497 -0.18762691 -0.3022949 0.116064586 -0.20020843 -0.014731804 -0.42749894 -0.018152976
0.0063534128 0.21561499 -0.29506463 0.17599599 0.12291466 0.13823684 -0.03091847 -0.043987036
-0.009080511 -0.18343997 0.11431978 -0.012889682 -0.11766936 -0.08639838 -0.12472104 -0.054616682
0.012149574 -0.331405 0.03533723 -0.03184158 0.1285147 0.06963326 0.26967365 0.15407453
-0.22008035 -0.15486258 0.43610787 0.17646143 -0.03388129 0.09583151 -0.05616169 0.2607047
0.6881019 0.17631899 0.18230033 -0.1557766 0.004345729 -0.18617558 -0.1527171 -0.105334215
-0.07995678 -0.1340816 0.19858992 0.039408304 -0.3106805 -0.02188616 -0.0792795 0.06107157
0.15374297 -0.009372404 0.059154984 -0.09395775 -0.26618624 0.03613399 -0.1754813 -0.19108325
-0.07113615 0.30141932 0.07995986 -0.37136412 -0.09231634 0.07755298 0.09524299 -0.05827019
0.13947114 -0.27474752 0.15554693 0.40977722 0.39756626 -0.02875383 -0.07271275 0.09292264
00000000: 2e20 213d 292d 7fbd 2752 303d 93f2 2c3e
00000010: 9e70 52be e199 333e 029b 06be 7536 88be
00000020: e074 f3bb cd25 92be 4b8e d73c e78b 373e
00000030: 4fec 533e f387 76be 4c35 933e 861f 44be
00000040: 9f8a 8abd 13f9 7c3e 8d1e 973e b63c 943e
00000050: cc58 b03e 52aa 7abd 4c33 0a3e fcac 0f3c
00000060: 93d5 ee3e f59d b83d 22b7 5b3d 79ea c3bc
00000070: 29ea b13d bd08 11bd 0172 acbe 7e59 603d
00000080: c894 0fbf 72a6 bbbe 42df 5dbe 68ed 9ebc
00000090: fef1 5d3e c25a 0bbe 1295 71be d6d3 b33d
000000a0: 50e7 853e 4ecc 6ebe 0f94 b03d be28 1bbd
000000b0: 17c9 e7bd b778 55be 4161 52be 5033 6abd
000000c0: 60a2 92bd b027 063e 4fad 41be a92f d23e
000000d0: bd6a 2a3e bf1e 4bbd c6dc 34bd 9171 30be
000000e0: a492 fcbb 8aac 8d3e 240f 653d b163 1d3e
000000f0: b6cf b7be 497a bfbd 624a 47bd a63d cebd
00000100: 9a41 573e 8d01 eb3d 8a91 b2bd 889d 213e
00000110: 4343 7cbd dcf7 673e e5d3 993e 9816 193e
00000120: 15c6 db3d aeb9 b73d 4662 403e 397a a9be
00000130: 7fa5 be3d 46f5 ba3e b2cf 1fbe 51a2 f8bd
00000140: 8621 13be f16e e03e 6253 b63d 628a d6bd
00000150: baf6 a63b 1c88 d53d 05f2 b63a c5bc 76bd
00000160: fdeb fc3d ceaf 443e b991 47be 4632 a43e
00000170: 1722 72be ef6e 643d 2610 adbd dd80 963d
00000180: bede b73d e154 943d 92d1 4f3e f022 5e3d
00000190: b02e a73e a8c6 893d 7eb4 593e 991d 2dbd
000001a0: faf7 2e3e 8a3f a4be 241b c93c bfed 1fbc
000001b0: 6ed7 8abe e45d f33d ae0b 8bbc 8ea4 2fbe
000001c0: f425 a1bd 894e 14be 5043 803d e3a2 02be
000001d0: 8c13 2bbe 3252 d0bd bbf6 64bd d560 49be
000001e0: ed33 0dbe f827 123e 5737 8dbd b7aa 47be
000001f0: d64c 6a3e a94f 53be 62ac 043d ffbf 5dbe
00000200: f3ea 6e3e 71cb 5cbe f686 febd eebe acba
00000210: 2c79 4bbe a558 85bb 2412 a3be 987c 91bd
00000220: 1dc0 9c3e 02a2 2fbe 7be3 0f3b 321d 6cbd
00000230: 0e3d 0a3e 4b66 cabd 340a 7a3e 01f7 883d
00000240: 7a6a 1bbe e982 513d a8af 3d3e ee04 0e3d
00000250: 5f3c e0bd 8a4a 633d 1b6b ccbd 574d 943e
00000260: bb56 6e3e d5de 6f3e 1da2 b2bd f1aa 9abd
00000270: f8be 043e ca65 0bbe 469c 033d 1ed3 4a3e
00000280: de45 623d b9ad 673e 6a40 87bc 88d5 973e
00000290: 3066 0a3e 72ac 293d f490 b8be 3e05 7dbe
000002a0: 308b 28be 6815 2ebe 93b0 97bb 80a3 c43e
000002b0: 4574 febd a15b 76be 7d1c b8be b74a 923d
000002c0: bf90 95bc 4521 40be 66c6 9abe 45b3 ed3d
000002d0: 7003 4dbe aa5d 71bc 24e1 dabe 8db5 94bc
000002e0: 4a30 d03b 2dca 5c3e b612 97be 4b38 343e
000002f0: aeba fb3d f58d 0d3e bb48 fdbc c02b 34bd
00000300: 6cc6 14bc b0d7 3bbe 7d20 ea3d 3f2f 53bc
00000310: a2fc f0bd a2f1 b0bd bf6d ffbd beb5 5fbd
00000320: 020f 473c ebad a9be c5bd 103d 516c 02bd
00000330: 5c99 033e e29b 8e3d aa12 8a3e b7c5 1d3e
00000340: be5c 61be 4c94 1ebe 8849 df3e 4eb2 343e
00000350: 1cc7 0abd 5043 c43d cd09 66bd 167b 853e
00000360: 7227 303f f78c 343e f0ac 3a3e e783 1fbe
00000370: 9e66 8e3b d0a4 3ebe df61 1cbe 77b9 d7bd
00000380: 61c0 a3bd b04c 09be 285b 4b3e 9a6a 213d
00000390: 8411 9fbe 9b4a b3bc 4a5d a2bd 2f26 7a3d
000003a0: cc6e 1d3e b68e 19bc 7f4c 723d ec6c c0bd
000003b0: 9049 88be 3c01 143d 5fb1 33be 54ab 43be
000003c0: d4af 91bd a253 9a3e ffc1 a33d 7023 bebe
000003d0: 5910 bdbd 19d4 9e3d c20e c33d b9ac 6ebd
000003e0: 86d1 0e3e b5ab 8cbe b247 1f3e 52ce d13e
000003f0: ce8d cb3e 278d ebbc 6cea 94bd 3a4e be3d

bias f4 [64]
-0.07190287 0.014021009 -0.012512205 -0.066634305 -0.071761034 0.016758032 -0.034416758 -0.009709987
-0.036639784 0.02941013 -0.023331314 -0.048944846 -0.060643483 0.03253835 0.019575847 0.089063905
0.0178512 -0.038970195 0.12224915 -0.035118043 -0.06625322 0.056092985 0.00044375134 0.00889621
-0.00156789 0.07730727 -0.07365742 0.075151764 0.04140921 0.032423593 -0.00012465402 -0.06779307
0.045526166 0.06676197 0.025994595 -0.034115583 -0.027768219 0.059870124 -0.029431399 0.067104034
-0.06141036 -0.07293047 -0.06162233 0.055114623 -0.03757581 -0.014547033 0.03747669 0.0373
-0.055992883 0.044197638 0.04073167 0.07784224 -0.023905603 -0.039887358 -0.010642297 0.018644389
0.029242741 -0.010822769 -0.07979774 0.04043237 0.031780284 0.051956993 -0.057982057 -0.07368083
00000000: d041 93bd 60b8 653c feff 4cbc 9177 88bd
00000010: 73f7 92bd 2448 893c 96f8 0cbd a316 1fbc
00000020: 9913 16bd 83ed f03c 5021 bfbc 647a 48bd
00000030: 4d65 78bd ef46 053d 875d a03c 2367 b63d
00000040: ae3c 923c 369f 1fbd c35d fa3d f0d7 0fbd
00000050: c5af 87bd c2c1 653d 4ca7 e839 69c1 113c
00000060: a981 cdba 4653 9e3d b4d9 96bd 2be9 993d
00000070: b49c 293d 9ace 043d 8fb5 02b9 18d7 8abd
00000080: a579 3a3d 80ba 883d 9ef2 d43c c8bc 0bbd
00000090: 2d7a e3bc 603a 753d 1e1a f1bc d76d 893d
000000a0: 6e89 7bbd 925c 95bd b267 7cbd dfbf 613d
000000b0: 18e9 19bd ae56 6ebc 2881 193d e3c7 183d
000000c0: cb58 65bd 9508 353d 40d6 263d c16b 9f3d
000000d0: afd5 c3bc ed60 23bd 075d 2ebc 1ebc 983c
000000e0: 798e ef3c fc51 31bc ff6c a3bd 6a9c 253d
000000f0: 0b2c 023d dbd0 543d 987e 6dbd fae5 96bd

weight f4 [64]
1.0134296 1.0878826 1.0037403 1.2346085 0.9894172 0.9869243 1.0842147 0.95472336
1.0070766 1.0919623 1.114481 1.0731603 0.9567807 1.064747 1.1035548 1.0738314
1.0728056 1.0444223 1.0667815 0.9838591 1.033378 1.0906717 0.928996 0.97693366
0.9405974 1.0031431 1.0206786 1.0396681 1.0278907 0.9545362 1.0713811 1.0927734
0.95580214 1.086375 0.81714576 0.98746276 0.9222364 0.97516096 0.99758476 0.9991027
1.0766981 1.030971 0.92112523 1.1990899 0.97491676 0.9741569 1.098559 0.8645309
1.122292 0.93511796 1.0571431 1.0192871 1.0345968 0.96480924 0.9669928 1.0614754
1.1212567 0.8740819 1.0592922 1.1779901 0.9720243 1.106483 1.1957265 1.1763804
00000000: 10b8 813f bd3f 8b3f 907a 803f a707 9e3f
00000010: 724a 7d3f 12a7 7c3f 8cc7 8a3f c068 743f
00000020: e3e7 803f 6cc5 8b3f 50a7 8e3f 515d 893f
00000030: 94ef 743f a149 883f 4941 8d3f 4f73 893f
00000040: b251 893f a1af 853f 4c8c 883f 31de 7b3f
00000050: bb45 843f 219b 8b3f afd2 6d3f 5318 7a3f
00000060: feca 703f fe66 803f 99a5 823f d813 853f
00000070: ec91 833f 7c5c 743f 0423 893f 00e0 8b3f
00000080: 73af 743f 560e 8b3f 7730 513f 5cca 7c3f
00000090: af17 6c3f 26a4 793f b761 7f3f 32c5 7f3f
000000a0: 3ed1 893f dcf6 833f ddce 6b3f c77b 993f
000000b0: 2594 793f 5962 793f 959d 8c3f e651 5d3f
000000c0: 44a7 8f3f e463 6f3f 7750 873f 0078 823f
000000d0: ab6d 843f bdfd 763f d78c 773f 6dde 873f
000000e0: 5785 8f3f d5c3 5f3f e396 873f 61c8 963f
000000f0: 96d6 783f 3ca1 8d3f 910d 993f a293 963f

bias f4 [64]
-0.02022966 0.037860908 -0.008737096 -0.030813497 -0.011679918 -0.010123727 -0.03307734 -0.014753048
-0.019012593 0.03418751 -0.019323133 -0.030072698 -0.00010946462 0.013392442 -0.0009844132 0.023447242
0.033497952 -0.0024332309 0.017867105 -0.0045863623 -0.0014025347 0.02029157 0.031346828 -0.0075902045
0.036002923 0.033920802 -0.018873049 0.019892389 0.021908846 0.0023685256 0.03810955 -0.0348638
-0.0021184708 0.028056035 0.016865699 0.008974753 -0.014387162 -0.00294448 -0.016577944 0.0060825255
-0.027718475 -0.0210874 -0.029371668 0.01950597 -0.008078247 0.0025825961 0.03390647 0.010374944
-0.034841187 -0.012310122 0.030914826 0.025448415 -0.030648863 0.0097284755 0.0059966263 0.007221754
0.0089634685 -0.0082693705 -0.033289067 0.026403064 0.008425026 0.026862724 -0.036162734 -0.041424703
00000000: acb8 a5bc 0a14 1b3d 0926 0fbc 966c fcbc
00000010: 205d 3fbc fddd 25bc 1b7c 07bd c5b6 71bc
00000020: 4cc0 9bbc 3408 0c3d 8c4b 9ebc 055b f6bc
00000030: 5f90 e5b8 f96b 5b3c 6d07 81ba 6e14 c03c
00000040: 2635 093d d776 1fbb 095e 923c 3249 96bb
00000050: 41d5 b7ba 823a a63c 8865 003d 40b7 f8bb
00000060: cd77 133d 8af0 0a3d a79b 9abc 5df5 a23c
00000070: 2e7a b33c 4439 1b3b c218 1c3d 58cd 0ebd
00000080: 0bd6 0abb c5d5 e53c ef29 8a3c d80a 133c
00000090: 22b8 6bbc 2df8 40bb 78ce 87bc ec4f c73b
000000a0: db11 e3bc 7cbf acbc da9c f0bc fcca 9f3c
000000b0: a05a 04bc c640 293b 83e1 0a3d abfb 293c
000000c0: a2b5 0ebd 65b0 49bc 1741 fd3c 3279 d03c
000000d0: 5313 fbbc 2f64 1f3c 597f c43b 77a4 ec3b
000000e0: 83db 123c 417c 07bc 1e5a 08bd 3d4b d83c
000000f0: 1f09 0a3c 370f dc3c 601f 14bd f3ac 29bd

weight f4 [2, 64]
0.01945234 -0.014208694 0.021333594 0.18552394 0.02007445 -0.0016835291 0.00395238 0.011394699
0.017608767 -0.05645475 0.050336722 0.053749703 -0.010400911 -0.055443037 -0.06666737 -0.04675486
-0.01879775 0.06812794 -0.027474977 0.045345522 0.056518186 -0.04549476 0.0027106984 0.019924188
0.0018397839 -0.04440621 0.028889498 -0.042138 -0.018343251 0.006158192 -0.06926121 0.057487674
0.012739841 -0.07688146 0.009878903 0.005516522 0.008354598 -0.013332474 0.0106219 -0.01846012
0.06602064 0.06359444 0.011528942 -0.13300104 -0.031939078 -0.019603204 0.003959885 0.0036318044
0.09773403 0.009759557 -0.03899688 -0.040455826 0.03142295 -0.006725004 -0.012191531 -0.02201402
-0.07084653 0.00248594 0.072064035 -0.10770592 -0.047886252 -0.08818576 0.15688738 0.1555224
0.027920969 -0.11074769 -0.011199395 -0.008195958 0.006322928 0.03424498 0.09710847 -0.003736347
0.021856425 -0.064972036 -0.105563916 0.07770761 0.019015867 0.05605969 -0.100151196 -0.016620383
-0.095180035 0.05419131 0.020821558 -0.023813965 0.013362915 0.062581204 0.007444266 0.006247966
-0.0073569105 -0.028387746 0.008617893 -0.01625367 -0.05541918 -0.009834178 -0.08317649 0.08484865
-0.014206333 0.06311999 0.0034738823 -0.02147368 -0.013820452 4.6983328e-06 0.04153265 0.01727655
-0.046326745 -0.027528496 0.0066715325 0.10164845 0.00379424 -0.008530253 -0.11783803 -0.0014224041
0.08182739 -0.009300455 0.040304586 0.014523872 0.041587275 0.014519043 0.010351404 0.0736162
0.10581425 0.00039269024 0.012258022 -0.08605538 0.017882127 0.05545895 -0.015898384 -0.083351046
00000000: 845a 9f3c 95cb 68bc cac3 ae3c fdf9 3d3e
00000010: 2c73 a43c dda9 dcba f782 813b d5b0 3a3c
00000020: 4340 903c 193d 67bd e12d 4e3d a628 5c3d
00000030: 9568 2abc 3d18 63bd e788 88bd 0682 3fbd
00000040: bdfd 99bc a986 8b3d 3413 e1bc 3abc 393d
00000050: 9d7f 673d b758 3abd f9a5 313b 0d38 a33c
00000060: e724 f13a 49e3 35bd aba9 ec3c e598 2cbd
00000070: 9644 96bc a9ca c93b d2d8 8dbd 3278 6b3d
00000080: c4ba 503c 0774 9dbd 1fdb 213c f1c3 b43b
00000090: b9e1 083c 7370 5abc 7a07 2e3c ad39 97bc
000000a0: d435 873d cd3d 823d e3e3 3c3c 6d31 08be
000000b0: 8dd2 02bd e696 a0bc ecc1 813b 9103 6e3b
000000c0: c728 c83d 8de6 1f3c 31bb 1fbd 02b5 25bd
000000d0: 5ab5 003d 6c5d dcbb fdbe 47bc bf56 b4bc
000000e0: fc17 91bd 27eb 223b 4f96 933d ec94 dcbd
000000f0: 6024 44bd bc9a b4bd 16a7 203e 4441 1f3e
00000100: 84ba e43c afcf e2bd ab7d 37bc 5748 06bc
00000110: 9030 cf3b 7744 0c3d cee0 c63d 80dd 74bb
00000120: 3f0c b33c 0f10 85bd e531 d8bd 2b25 9f3d
00000130: 2ac7 9b3c d89e 653d 121c cdbd 7827 88bc
00000140: c0ed c2bd b5f7 5d3d f991 aa3c 8115 c3bc
00000150: 21f0 5a3c 932a 803d 08ef f33b bdbb cc3b
00000160: 3d12 f1bb 6b8d e8bc 1032 0d3c 6b26 85bc
00000170: 39ff 62bd 881f 21bc 7058 aabd 21c5 ad3d
00000180: aec1 68bc 0e45 813d 13aa 633b 92e9 afbc
00000190: 2d6f 62bc 5fa6 9d36 241e 2a3d 8d87 8d3c
000001a0: 1dc1 3dbd 7183 e1bc df9c da3b 102d d03d
000001b0: c9a8 783b 79c2 0bbc 1155 f1bd f66f baba
000001c0: 1e95 a73d f060 18bc 6c16 253d 89f5 6d3c
000001d0: 6b57 2a3d 48e1 6d3c ef98 293c 17c4 963d
000001e0: 24b5 d83d fee1 cd39 dfd5 483c ce3d b0bd
000001f0: 8a7d 923c ed28 633d 543d 82bc f4b3 aabd

bias f4 [2]
-0.021326924 -0.0074386713
00000000: cdb5 aebc 19c0 f3bb

_bias f4 [2, 1]
-3.2390594 -3.1878965
00000000: c04c 4fc0 7f06 4cc0

weight f4 [64, 26]
0.14884704 0.33787933 0.3466264 0.04758938 0.27442846 0.5983895 0.009283459 -0.0010007492
0.25178066 0.039181154 -0.0034803392 -0.1963648 -0.117834695 -0.05975741 0.14756668 0.43054783
-0.10095094 0.10470164 -0.052530687 0.066471286 0.032096792 0.048196055 -0.060552873 0.041426152
-0.09386945 -0.24727263 0.19646937 0.045829408 0.48218924 -0.06482541 0.1800651 0.06541736
-0.6058188 0.0016777309 -0.0025475696 -0.1323367 0.025689041 0.13319714 -0.060246132 -0.2100478
0.034303434 -0.115742125 0.25276113 0.029001402 0.090364635 0.26520863 -0.03490189 -0.009790769
-0.19144031 0.02644577 0.022350607 0.07596244 0.14499946 -0.28859904 0.1561285 -0.19314483
0.047869902 0.14404151 -0.009055274 -0.41375238 0.077318646 -0.51233786 -0.01724285 -0.08541776
0.06386012 0.16058023 0.022813277 0.23715714 0.1570101 0.12292156 0.10060914 0.18123128
-0.07919685 0.003521643 -0.073765256 -0.017144838 0.17290372 -0.15987334 0.1484464 -0.044811066
0.30282506 0.088797584 -0.031843938 0.75491905 0.21004567 0.04413488 0.23241863 0.25228685
-0.19405548 -0.23874432 -0.16492362 -0.008251258 -0.044381246 -0.188039 0.17788312 -0.08683909
-0.10134206 0.27363354 -0.012004252 0.050812274 -0.062515505 0.06781409 0.028340327 0.21852759
0.040122055 -0.091761366 -0.02706797 -0.10127344 0.14383234 0.20520198 0.037239768 -0.021674959
-0.019369831 0.33593878 -0.020810148 0.37927568 -0.281521 -0.24765652 0.24018401 -0.00016692853
-0.00940879 0.17869543 -0.032322764 -0.0010872103 0.017194957 -0.03553979 0.002185246 0.003998258
-0.10286989 0.14643164 -0.004651863 -0.016746541 0.031727783 -0.13372272 -0.022490641 0.12084367
0.11285947 -0.03853689 -0.13061544 0.2387294 0.065203846 -0.021473961 -0.12413629 0.13307968
0.044962786 0.17826408 -0.015620479 -0.46299148 0.3022596 0.42581683 -0.1539235 0.0817466
0.021184541 0.0065591205 0.05050596 -0.5485509 0.055426214 -0.30352637 0.0619753 0.10555029
0.032983743 0.42899996 -0.058190268 0.0021809973 -0.13332571 -0.118898965 1.8585119e-05 -0.2026613
0.10994661 -0.110053614 -0.345126 0.314135 0.24866351 -0.011630659 -0.20090881 0.26226518
0.18436788 0.21369885 0.20010646 -0.09804102 0.059260137 0.00048702417 0.20715344 -0.040438194
-0.08970873 -0.12501115 0.40510336 0.30365297 0.0064227353 0.03936567 -0.08866659 0.027840557
0.04608437 -0.027323548 0.19374444 -0.04741993 -0.77625114 0.27149087 0.08838209 -0.31520596
-0.11505313 -0.18881057 -0.12387705 0.11177355 0.14938368 -0.07857517 -0.0614973 -0.21144976
-0.06074732 0.08951387 0.5794917 0.103807405 -0.009726933 0.29127085 0.0352467 0.04299346
0.023650583 -1.1876059 0.00085773575 0.14419039 0.07019857 -0.029358514 0.13414356 0.022711044
-0.10478368 0.1100217 -0.122519694 -0.008095337 0.039102726 -0.017963318 0.031190488 -0.008836375
-0.082075134 -0.038519785 -0.20073065 0.10089908 0.53654677 -0.06483782 0.0684176 -0.014023085
0.5902308 0.014768688 -0.06570388 0.08144079 0.05690203 -0.21039216 0.06474662 -0.090594016
-0.06700895 0.10595701 0.05010499 0.08381251 0.046860818 0.073483326 -0.064720064 0.036053248
00000000: 5c6b 183e 85fe ac3e 0479 b13e 15ed 423d
00000010: e381 8c3e 0e30 193f a619 183c 922b 83ba
00000020: 65e9 803e 6b7c 203d 6716 64bb db13 49be
00000030: 5153 f1bd 30c4 74bd b81b 173e c470 dc3e
00000040: 5ebf cebd d06d d63d 6b2a 57bd 1922 883d
00000050: ed77 033d 3a69 453d 4a06 78bd 78ae 293d
00000060: a03e c0bd 0935 7dbe 442f 493e 9eb7 3b3d
00000070: 82e1 f63e 2fc3 84bd fc62 383e 89f9 853d
00000080: f116 1bbf 4fe7 db3a 20f5 26bb 4683 07be
00000090: d371 d23c d564 083e a6c4 76bd c516 57be
000000a0: c281 0c3d 350a edbd e869 813e 5994 ed3c
000000b0: 1811 b93d 6dc9 873e 49f5 0ebd 7669 20bc
000000c0: ee08 44be cda4 d83c 9f18 b73c 3292 9b3d
000000d0: bd7a 143e 41c3 93be 26e0 1f3e c2c7 45be
000000e0: 3b13 443d 9e7f 133e 925c 14bc 5ad7 d3be
000000f0: 3d59 9e3d 9328 03bf e140 8dbc 82ef aebd
00000100: 18c9 823d 256f 243e e9e2 ba3c 52d9 723e
00000110: 41c7 203e 4dbe fb3d 2a0c ce3d b194 393e
00000120: f531 a2bd 5ecb 663b 3d12 97bd 5573 8cbc
00000130: ac0d 313e d6b5 23be 5502 183e cf8b 37bd
00000140: e30b 9b3e 82db b53d ca6e 02bd 6042 413f
00000150: 3616 573e c7c6 343d 26ff 6d3e be2b 813e
00000160: 7bb6 46be 6479 74be bde1 28be 4930 07bc
00000170: 1cc9 35bd 4c8d 40be fe26 363e b1d8 b1bd
00000180: 6d8c cfbd b219 8c3e 7bad 44bc 8820 503d
00000190: 2108 80bd 1de2 8a3d f929 e83c b2c5 5f3e
000001a0: 0657 243d 62ed bbbd a6bd ddbc 7368 cfbd
000001b0: c948 133e 7820 523e ba88 183d af8f b1bc
000001c0: 7bad 9ebc 2b00 ac3e 0b7a aabc 6c30 c23e
000001d0: 8523 90be ac99 7dbe ccf2 753e 8909 2fb9
000001e0: 5327 1abc effb 363e e064 04bd b980 8eba
000001f0: 70dc 8c3c 2c92 11bd 5836 0f3b d203 833b
00000200: 73ad d2bd 2df2 153e a86e 98bb 0b30 89bc
00000210: fef4 013d 9cee 08be 4b3e b8bc e37c f73d
00000220: de22 e73d dcd8 1dbd 0ec0 05be 7b75 743e
00000230: 9889 853d 29ea afbc 2b3b febd 0a46 083e
00000240: e62a 383d dc8a 363e 0aed 7fbc 380d edbe
00000250: c5c1 9a3e aa04 da3e 1f9e 1dbe c36a a73d
00000260: 348b ad3c e4ed d63b 56df 4e3d d56d 0cbf
00000270: 9906 633d cf67 9bbe d0d9 7d3d c02a d83d
00000280: f619 073d e2a5 db3e eb58 6ebd 10ef 0e3b
00000290: 8986 08be 4d81 f3bd 3de7 9b37 7286 4fbe
000002a0: b02b e13d ca63 e1bd 5bb4 b0be 4dd6 a03e
000002b0: a6a1 7e3e 858e 3ebc 0abb 4dbe 9f47 863e
000002c0: efca 3c3e dfd3 5a3e b5e8 4c3e bbc9 c8bd
000002d0: c2ba 723d 4757 ff39 0820 543e 85a2 25bd
000002e0: 36b9 b7bd ec02 00be b569 cf3e 6778 9b3e
000002f0: cf75 d23b e63d 213d d496 b5bd e111 e43c
00000300: f7c2 3c3d a2d5 dfbc f164 463e 673b 42bd
00000310: 65b8 46bf da00 8b3e ab01 b53d ad62 a1be
00000320: faa0 ebbd 8f57 41be 40b3 fdbd 88e9 e43d
00000330: 09f8 183e 05ec a0bd 98e4 7bbd 4986 58be
00000340: 2fd2 78bd 0c53 b73d 9159 143f fa98 d43d
00000350: b75d 1fbc 7421 953e d85e 103d e919 303d
00000360: debe c13c 7803 98bf acd9 603a a5a6 133e
00000370: 45c4 8f3d 4481 f0bc ee5c 093e 830c ba3c
00000380: d398 d6bd 0f53 e13d 9beb fabd 4ea2 04bc
00000390: 2e2a 203d cf27 93bc 3283 ff3c 71c6 10bc
000003a0: 0217 a8bd ecc6 1dbd 568c 4dbe 2da4 ce3d
000003b0: 215b 093f b1c9 84bd 871e 8c3d 15c1 65bc
000003c0: 5e19 173f 5ef8 713c c18f 86bd 6eca a63d
000003d0: 1a12 693d 0b71 57be e099 843d 5b89 b9bd
000003e0: fd3b 89bd fdff d83d e43a 4d3d e5a5 ab3d
000003f0: 21f1 3f3d 6d7e 963d f48b 84bd 92ac 133d

bias f4 [64]
0.16817948 0.3534647 0.06945032 0.51416016 0.037914485 0.07582273 0.1754213 0.19080718
0.7797973 0.0669427 -0.052604936 -0.77923715 -0.03202484 0.21993648 0.019390866 -1.0571434
0.1704268 0.45335633 -0.03010972 0.13425593 0.18360916 0.108150706 0.14686647 -0.031028608
0.13754278 -0.07592987 -0.37721795 -0.4085898 0.057656642 0.46223682 0.3179554 -0.09265316
0.1923348 0.29735446 -0.102005646 0.19435023 -0.06367636 0.12457947 0.108467646 0.03720519
0.38766566 -0.4478156 0.0023748172 0.093790084 0.08551533 -0.008562407 -0.009519985 -0.021689897
-0.020978155 -0.04272629 -0.04899162 -0.069788925 0.020955235 0.086704195 0.021650657 0.063643254
-0.14254689 0.042610895 0.2161378 0.13549632 -0.08219985 0.12214895 -0.10695276 -0.5780695
00000000: 3e37 2c3e 53f9 b43e f83b 8e3d 00a0 033f
00000010: 384c 1b3d f348 9b3d a4a1 333e f562 433e
00000020: cca0 473f 4119 893d 4678 57bd 167c 47bf
00000030: 7b2c 03bd 0737 613e 98d9 9e3c 7a50 87bf
00000040: 5d84 2e3e 521e e83e a9a8 f6bc 637a 093e
00000050: 0a04 3c3e 1e7e dd3d 2a64 163e b52f febc
00000060: 04d8 0c3e 1f81 9bbd b622 c1be af32 d1be
00000070: 5f29 6c3d 4eaa ec3e 0dcb a23e f1c0 bdbd
00000080: 6af3 443e d83e 983e 56e8 d0bd bf03 473e
00000090: c068 82bd 8523 ff3d 4924 de3d 7864 183d
000000a0: 1d7c c63e 1648 e5be d2a2 1b3b 0415 c03d
000000b0: a922 af3d 5749 0cbc b6f9 1bbc 03af b1bc
000000c0: 61da abbc c301 2fbd 70ab 48bd 7fed 8ebd
000000d0: 50aa ab3c f891 b13d b85c b13c 6557 823d
000000e0: d0f7 11be c388 2e3d 3a53 5d3e 8cbf 0a3e
000000f0: 6558 a8bd 3b29 fa3d 0c0a dbbd 5dfc 13bf

weight f4 [64]
0.8763837 0.9752477 0.96678156 0.974642 1.0662614 0.977559 0.90526074 1.0129064
1.4910845 1.03106 0.9570605 1.1886249 1.254145 1.0753096 0.98095506 1.5066929
1.0998966 1.080594 0.95147234 0.96592534 0.87360436 1.0140246 1.0418254 0.8540478
0.9472661 0.9523018 1.0724579 1.0395299 0.9261202 1.2772577 1.0988578 0.9346734
0.9585197 0.9921957 0.9374551 1.0710769 0.9760627 0.9980896 0.9028389 0.9656701
0.90912384 1.1806294 1.0124441 0.9236351 0.88812965 1.028448 0.9822569 0.9391252
0.95341396 0.9693625 1.0098499 0.9859846 1.0455825 0.9941129 1.0071348 0.9254305
0.9896657 0.95016146 1.0052073 0.80051273 1.004189 0.8503663 0.97980654 1.1296169
00000000: af5a 603f d5a9 793f ff7e 773f 2382 793f
00000010: 417b 883f 4e41 7a3f 2bbf 673f eba6 813f
00000020: dbdb be3f c6f9 833f eb01 753f dc24 983f
00000030: d387 a03f bfa3 893f df1f 7b3f 50db c03f
00000040: 69c9 8c3f e750 8a3f b193 733f e246 773f
00000050: 89a4 5f3f 8fcb 813f 895a 853f e0a2 5a3f
00000060: 0880 723f 0dca 733f 4d46 893f 510f 853f
00000070: 3716 6d3f 2e7d a33f 5fa7 8c3f c246 6f3f
00000080: 8c61 753f 8a00 7e3f 0ffd 6f3f 0c19 893f
00000090: 3fdf 793f cd82 7f3f 7320 673f 2836 773f
000000a0: 57bc 683f dd1e 973f c597 813f 5a73 6c3f
000000b0: 775c 633f 2fa4 833f 3075 7b3f 826a 703f
000000c0: f012 743f 2428 783f c342 813f 7d69 7c3f
000000d0: a6d5 853f 2f7e 7e3f cbe9 803f 03e9 6c3f
000000e0: bb5a 7d3f c83d 733f a2aa 803f 67ee 4c3f
000000f0: 4489 803f 9bb1 593f 9ad4 7a3f 4997 903f

bias f4 [64]
0.0156287 0.025367482 -0.008738799 0.017518926 0.0075230435 0.004196335 0.018505827 0.010835515
0.025892856 0.028322 -0.010299622 -0.096563816 -0.09086818 0.04524312 0.010720055 -0.06213481
-0.019080307 0.028640686 -0.034212667 -0.0027027251 0.019978035 -0.00022909477 -0.0059526837 -0.012111295
-0.0011233282 -0.028636828 -0.018304015 -0.06653443 -0.022510508 0.06273867 0.05039598 -0.035692573
0.006276795 0.05173755 0.02569779 -0.03994879 -0.005882225 -0.054668877 0.08097883 0.035915047
-0.036578286 -0.04366173 0.0015095843 0.08013854 0.019057287 0.01309684 0.002169566 0.0018012119
-0.03508407 0.008362608 0.00071048585 -0.0034500877 -0.04123116 -0.01719751 0.01072466 0.0009094338
-0.008620173 -0.00049738586 -0.015201739 0.055283286 -0.0078053586 0.018385282 -0.062110297 -0.0190638
00000000: c207 803c 77cf cf3c 2e2d 0fbc da83 8f3c
00000010: dd83 f63b 6981 893b 8899 973c 7287 313c
00000020: 411d d43c 8a03 e83c bfbf 28bc 40c3 c5bd
00000030: 1919 babd da50 393d 2ba3 2f3c 1281 7ebd
00000040: 4e4e 9cbc df9f ea3c 9522 0cbd 3420 31bb
00000050: faa8 a33c 2939 70b9 bb0e c3bb 746e 46bc
00000060: a43c 93ba c897 eabc 4df2 95bc 3443 88bd
00000070: f567 b8bc 227d 803d 046c 4e3d 6032 12bd
00000080: 93ad cd3b c1ea 533d 2c84 d23c 58a1 23bd
00000090: aebf c0bb 79ec 5fbd 3bd8 a53d a81b 133d
000000a0: 1dd3 15bd a4d6 32bd 3edd c53a ad1f a43d
000000b0: 071e 9c3c 2194 563c 472f 0e3b a416 ec3a
000000c0: 50b4 0fbd 5203 093c e63f 3a3a de1a 62bb
000000d0: 01e2 28bd cbe1 8cbc 7cb6 2f3c 1267 6e3a
000000e0: a03b 0dbc 0063 02ba b710 79bc ba70 623d
000000f0: 18c4 ffbb bb9c 963c 5e67 7ebd b02b 9cbc

weight f4 [64, 64]
-0.33419484 0.1524376 -0.05668277 0.12530182 0.051573716 0.17861584 -0.2105724 -0.12479764
-0.19114758 0.12275333 -0.2979274 0.12809154 0.25775677 0.22130455 -0.20705892 0.031344585
0.13148133 0.022798087 -0.13404499 -0.069924906 -0.26013422 -0.044802103 0.1945321 0.28839046
-0.23995158 -0.1411035 -0.25482565 0.10683041 0.06788107 -0.009992308 0.011523094 0.17874646
-0.5026066 0.37882507 -0.26768374 0.025782617 0.091632724 0.06541493 0.022087842 -0.20439403
-0.133999 -0.09118487 -0.16443338 0.14877693 -0.12920421 -0.13823108 0.10050999 0.13022523
0.298121 0.017354501 0.05628126 0.08682925 -0.030472793 0.0801997 -0.24625534 0.008426316
-0.0073748906 -0.19247234 -0.18707117 0.27971482 -0.04782144 -0.090776905 0.070698105 -0.09881245
-0.30932686 0.018247679 -0.054373633 0.17364891 -0.26139736 -0.04610879 0.13257897 0.024248434
0.281086 -0.010983597 0.009453714 0.035619862 0.14923224 -0.19899856 -0.2077737 0.12707451
0.0006272046 0.18021148 0.056404285 -0.16327006 -0.016968202 -0.4598523 0.010028282 0.17769447
-0.13379714 -0.058092177 0.12734629 0.013625961 -0.0029976955 -0.4815021 -0.029457033 -0.2717821
0.41305333 -0.050632853 -0.33737043 0.19182904 0.13025686 0.06621816 0.37043205 -0.096832946
0.018845987 -0.04249395 -0.12028622 0.2712089 0.07751941 0.06420673 0.23671791 0.07323035
-0.022866754 0.13328397 0.25658208 -0.16627091 -0.05369765 -0.046014663 0.1939064 -0.0075016352
-0.11862817 0.16442384 -0.056580722 -0.106166914 0.08051212 -0.016585866 0.026013736 0.2741672
-0.17973915 0.0047085145 0.12041466 -0.14755975 0.17842138 -0.051721707 -0.051365398 -0.021611307
0.25881067 -0.14397793 -0.1314624 -0.24105173 0.060203098 0.017147107 0.47651872 0.11729836
0.024785992 0.11200926 0.10804324 -0.0289941 -0.4590613 0.08126041 0.020528859 -0.10614386
0.22007525 -0.15034474 -0.20774178 0.15492602 -0.15594134 0.13664372 -0.10150088 -0.026667489
0.08717284 -0.15295787 -0.2566064 -0.17114998 -0.04166079 0.25511625 -0.30422187 0.08356265
0.14273135 -0.13951284 -0.07965062 0.07884348 0.109186485 0.0089994725 -0.309357 -0.108621396
-0.0035692386 0.102978416 0.08337353 0.06250107 -0.029260354 -0.10931553 -0.29753658 -0.13532957
0.114780515 -0.39822635 -0.07453771 -0.23044167 0.25297278 -0.08847853 -0.051748127 0.03814337
-0.22368371 -0.24790813 0.17254329 -0.107260354 0.0697312 0.05206276 0.10803254 0.25430527
-0.28834844 0.017464498 0.05411658 0.27995002 0.10329919 -0.007055443 0.19707312 -0.04038515
0.055977304 -0.15651372 0.24066682 -0.18159947 0.0068240697 0.18851419 0.11386927 0.053765073
-0.28825453 0.28056902 0.3580223 -0.1460911 -0.23277085 -0.3878603 -0.07162917 0.14702143
-0.12836525 -0.12755854 0.10550169 0.19799551 -0.2733893 -0.15962887 -0.229958 -0.08034455
-0.025589313 -0.22374375 -0.15315914 -0.24868438 -0.02760865 0.05779316 0.107729346 0.117978424
0.20652194 -0.14926565 0.18908964 -0.07712462 -0.117545255 0.047994476 -0.00069518335 0.05798299
0.06288836 -0.27580792 0.06421813 0.20862643 -0.04671137 -0.33246082 -0.028315218 0.62053853
00000000: 961b abbe 9a18 1c3e 312c 68bd 1f4f 003e
00000010: f63e 533d 12e7 363e 4ba0 57be e895 ffbd
00000020: 31bc 43be 1966 fb3d f189 98be 6e2a 033e
00000030: b2f8 833e a99d 623e 4107 54be 2e63 003d
00000040: 0ba3 063e 0ec3 ba3c 1743 09be ca34 8fbd
00000050: 5030 85be 6982 37bd 6c33 473e eaa7 933e
00000060: deb5 75be 707d 10be 8278 82be e7c9 da3d
00000070: 3b05 8b3d c7b6 23bc 5ccb 3c3c 5009 373e
00000080: d3aa 00bf 5cf5 c13e d80d 89be 1136 d33c
00000090: f0a9 bb3d 43f8 853d 90f1 b43c ab4c 51be
000000a0: 0937 09be 22bf babd 3961 28be fb58 183e
000000b0: 1c4e 04be 738c 0dbe 2ed8 cd3d c359 053e
000000c0: 51a3 983e 072b 8e3c 2e87 663d 89d3 b13d
000000d0: 14a2 f9bc be3f a43d 5c2a 7cbe 880e 0a3c
000000e0: 11a9 f1bb 7817 45be 968f 3fbe c836 8f3e
000000f0: 6ae0 43bd 3ee9 b9bd 2bca 903d 2f5e cabd
00000100: 1760 9ebe 287c 953c e3b6 5ebd 05d1 313e
00000110: e0d5 85be 92dc 3cbd c8c2 073e a7a4 c63c
00000120: 81ea 8f3e 8bf4 33bc c0e3 1a3c 22e6 113d
00000130: 56d0 183e 47c6 4bbe a1c2 54be d21f 023e
00000140: fd6a 243a 5c89 383e 2e08 673d 4430 27be
00000150: e600 8bbc c371 ebbe aa4d 243c 8af5 353e
00000160: 1e02 09be 10f2 6dbd 1167 023e 6c3f 5f3c
00000170: fc74 44bb 7187 f6be e04f f1bc 0627 8bbe
00000180: ba7b d33e 6564 4fbd d1bb acbe d56e 443e
00000190: 0e62 053e 639d 873d 45a9 bd3e 5a50 c6bd
000001a0: e662 9a3c 230e 2ebd 9f58 f6bd e5db 8a3e
000001b0: 7fc2 9e3d d17e 833d 2e66 723e cbf9 953d
000001c0: 0f53 bbbc 987b 083e ba5e 833e ec42 2abe
000001d0: 11f2 5bbd df79 3cbd 668f 463e 47d0 f5bb
000001e0: 53f3 f2bd b95e 283e 30c1 67bd 0a6e d9bd
000001f0: 8ae3 a43d 15df 87bc c21a d53c a55f 8c3e
00000200: 8a0d 38be e249 9a3b f69b f63d e719 17be
00000210: 18b4 363e 24da 53bd 8664 52bd 320a b1bc
00000220: d582 843e f36e 13be 149e 06be 44d6 76be
00000230: 8697 763d 1778 8c3c 43fa f33e 1f3a f03d
00000240: fe0b cb3c 1c65 e53d c645 dd3d 0985 edbc
00000250: 150a ebbe dc6b a63d 232c a83c f461 d9bd
00000260: 685b 613e f9f3 19be 43ba 54be eda4 1e3e
00000270: 16af 1fbe 55ec 0b3e b2df cfbd c775 dabc
00000280: ad87 b23d fda0 1cbe ea61 83be f141 2fbe
00000290: 81a4 2abd 999e 823e f8c2 9bbe e522 ab3d
000002a0: 2b28 123e 74dc 0ebe dd1f a3bd b178 a13d
000002b0: 2a9d df3d 8672 133c 0a64 9ebe e574 debd
000002c0: e3e9 69bb 59e6 d23d bebf aa3d 9000 803d
000002d0: 69b3 efbc d2e0 dfbd b756 98be d693 0abe
000002e0: 0c12 eb3d 53e4 cbbe 3aa7 98bd e7f8 6bbe
000002f0: a685 813e 3b34 b5bd d8f5 53bd 393c 1c3d
00000300: 580d 65be a1db 7dbe 30af 303e 51ab dbbd
00000310: 3bcf 8e3d c33f 553d 2a40 dd3d 4d34 823e
00000320: 68a2 93be b511 8f3c 59a9 5d3d 9c55 8f3e
00000330: 878e d33d 5831 e7bb 89cd 493e e66a 25bd
00000340: 7548 653d 2245 20be 5d71 763e 36f5 39be
00000350: 729c df3b dd09 413e 4b34 e93d c438 5c3d
00000360: 1996 93be bea6 8f3e b34e b73e e898 15be
00000370: 7b5b 6ebe a095 c6be 50b2 92bd c98c 163e
00000380: 2e72 03be b59e 02be 4511 d83d 56bf 4a3e
00000390: aff9 8bbe c075 23be 1c7a 6bbe af8b a4bd
000003a0: aea0 d1bc 151d 65be c0d5 1cbe 1ea7 7ebe
000003b0: 892b e2bc 85b8 6c3d 34a1 dc3d ac9e f13d
000003c0: 7d7a 533e 18d9 18be b7a0 413e 83f3 9dbd
000003d0: 91bb f0bd db95 443d f73c 36ba 927f 6d3d
000003e0: 9dcb 803d b236 8dbe cc84 833d 2ba2 553e
000003f0: 6c54 3fbd 4e38 aabe 51f5 e7bc 9ddb 1e3f

bias f4 [64]
-0.0048991023 0.007932034 0.028370747 -0.0029305352 -0.0067745713 0.016089123 0.055471886 -0.004333392
-0.050874516 0.065898046 -0.01361425 0.021633074 0.00898533 0.00282232 0.00090934365 -0.013104583
0.008709591 -0.00015953193 0.017569711 0.008986233 0.02356022 0.001305534 0.18649322 0.030658394
-0.057827555 -0.0018567083 -0.12871474 -0.016945343 0.011954433 0.012099307 0.02553618 -0.008650519
0.029569214 0.0123700155 -0.0039387373 0.034184862 0.023009108 0.030762095 0.024223855 -0.035826452
-0.008750339 -0.06384966 0.022781633 0.0046732947 -0.15701388 0.011955623 0.016161311 -0.011396673
-0.047814246 -0.011918619 -0.010488088 -0.010384441 0.0063447147 -0.06646642 0.06029404 0.025386054
0.022642912 -0.0077030165 0.0019740833 -0.033018596 -0.02848589 0.020737978 -0.008465849 -0.023976745
00000000: a688 a0bb 5df5 013c c569 e83c 390e 40bb
00000010: 39fd ddbb 56cd 833c 7d36 633d 20ff 8dbb
00000020: cc61 50bd 8ef5 863d 4e0e 5fbc d837 b13c
00000030: 3537 133c acf6 383b 0561 6e3a 9bb4 56bc
00000040: acb2 0e3c 0748 27b9 5bee 8f3c fe3a 133c
00000050: 5d01 c13c 741e ab3a 14f8 3e3e 5027 fb3c
00000060: 96dc 6cbd cb5c f3ba cccd 03be f6d0 8abc
00000070: 87dc 433c 2c3c 463c 4031 d13c e8ba 0dbc
00000080: 233b f23c 9bab 4a3c 8610 81bb 6d05 0c3d
00000090: 997d bc3c ca00 fc3c 1b71 c63c c2be 12bd
000000a0: 955d 0fbc 9cc3 82bd 8ca0 ba3c 7022 993b
000000b0: 3fc8 20be 84e1 433c ba64 843c 1cb9 3abc
000000c0: dfd8 43bd 5046 43bc 3bd6 2bbc 8123 2abc
000000d0: 53e7 cf3b 8c1f 88bd e2f6 763d 6af6 cf3c
000000e0: a17d b93c 9669 fcbb 9f5f 013b 823e 07bd
000000f0: 3e5b e9bc b1e2 a93c 58b4 0abc e16a c4bc

weight f4 [64]
0.9645175 0.98215055 0.99125487 1.017086 0.98381597 0.9899724 0.98277265 0.9951719
0.9952656 0.97094345 0.96524185 0.97255135 0.986143 0.96983457 1.0073991 0.97946435
1.0185865 0.960949 0.9885342 0.99173456 0.9813706 1.0262545 0.97832084 1.0043062
0.9977486 0.9919699 0.9564419 1.0045713 1.013015 0.988908 1.0230018 0.9724168
1.0033765 0.9619261 0.95120347 0.99126995 0.9853562 1.0124038 0.9886152 0.95215887
0.9886264 1.020046 0.9675183 1.0817064 0.9881219 0.98286915 0.9198104 0.97645116
0.98801535 0.9871628 0.9541732 0.96216244 1.0036557 1.0192425 0.98006237 0.9768947
1.0136142 0.99879384 0.96208537 0.99904335 0.9659524 0.9873029 0.993388 1.0100958
00000000: 9eea 763f 386e 7b3f e1c2 7d3f e02f 823f
00000010: 5ddb 7b3f d56e 7d3f fd96 7b3f 96c3 7e3f
00000020: bac9 7e3f c08f 783f 171a 773f 20f9 783f
00000030: de73 7c3f 1447 783f 74f2 803f 2dbe 7a3f
00000040: 0b61 823f c100 763f 9410 7d3f 51e2 7d3f
00000050: 1b3b 7b3f 4f5c 833f 3c73 7a3f 1b8d 803f
00000060: 746c 7f3f bdf1 7d3f 60d9 743f cb95 803f
00000070: 7aaa 813f 1329 7d3f b9f1 823f 4ff0 783f
00000080: a46e 803f ca40 763f 1282 733f dec3 7d3f
00000090: 4e40 7c3f 7396 813f e315 7d3f afc0 733f
000000a0: 9f16 7d3f de90 823f 48af 773f 5b75 8a3f
000000b0: 8ff5 7c3f 509d 7b3f b278 6b3f b4f8 793f
000000c0: 93ee 7c3f b4b6 7c3f b244 743f 4750 763f
000000d0: ca77 803f 8a76 823f 5ee5 7a3f c515 7a3f
000000e0: 1cbe 813f f4b0 7f3f 3a4b 763f 4ec1 7f3f
000000f0: a848 773f e2bf 7c3f ad4e 7e3f d24a 813f

bias f4 [64]
0.027323395 0.028687414 -0.026003161 0.027830722 0.025890648 0.025326967 -0.024193395 -0.020529354
0.026433714 0.031155195 0.025216565 0.024993377 -0.026068019 -0.02667677 0.026245981 -0.026801996
-0.028917782 0.024361305 -0.027812667 -0.0267464 -0.025778137 0.027679158 -0.033771016 0.026889646
0.02992231 -0.024795685 0.02368523 0.027265549 -0.026684083 -0.021662546 -0.027447782 0.022227058
0.027321255 -0.0036017266 -0.027486172 -0.025673691 -0.009580457 -0.023966275 0.017772447 0.025286905
0.026606593 0.025020426 -0.024325183 -0.028658997 0.024208767 -0.026379881 -0.021611642 0.026051404
0.026243849 -0.026509894 -0.024460645 0.024909459 -0.026870335 0.028221462 0.012312404 0.02376125
0.029764412 0.026499357 -0.025226476 0.027309662 -0.03189919 -0.027032733 0.026128225 0.026968522
00000000: 50d5 df3c de01 eb3c 9504 d5bc 41fd e33c
00000010: a018 d43c 807a cf3c 3a31 c6bc 2d2d a8bc
00000020: 848b d83c 2e39 ff3c f892 ce3c e9be cc3c
00000030: 998c d5bc 3e89 dabc d001 d73c dc8f dbbc
00000040: fce4 ecbc 5c91 c73c 64d7 e3bc 441b dbbc
00000050: ac2c d3bc 67bf e23c 7a53 0abd ad47 dc3c
00000060: a21f f53c 5220 cbbc 8707 c23c 005c df3c
00000070: 9498 dabc a775 b1bc 2cda e0bc 8515 b63c
00000080: d3d0 df3c f20a 6cbb ae2a e1bc a251 d2bc
00000090: 59f7 1cbc ec54 c4bc 8697 913c 7c26 cf3c
000000a0: 12f6 d93c a3f7 cc3c 9b45 c7bc 46c6 eabc
000000b0: 7751 c63c 9f1a d8bc e60a b1bc c169 d53c
000000c0: 57fd d63c 472b d9bc b161 c8bc ec0e cc3c
000000d0: 2d1f dcbc b230 e73c f7b9 493c f4a6 c23c
000000e0: 7fd4 f33c 2e15 d93c c1a7 cebc 83b8 df3c
000000f0: baa8 02bd c073 ddbc dc0a d63c 17ed dc3c

weight f4 [1, 64]
-0.14837635 -0.07841311 0.03882936 -0.08563995 -0.16960463 -0.07963442 0.060691748 0.021441238
-0.123154156 -0.019149644 -0.14713998 -0.041516 0.13867845 0.15900262 -0.06422504 0.2688272
0.07043326 -0.06167289 0.07346723 0.031169102 0.0823548 -0.1767735 0.010768775 -0.16903292
-0.03495943 0.034471888 -0.0030020142 -0.16910052 0.113367 0.050948568 0.08002393 -0.06835116
-0.1469743 0.0025648586 0.25662807 0.057825845 0.015755188 0.0801154 -0.01670247 -0.13790803
-0.13868101 -0.051921595 0.12352444 0.107362315 -0.03295558 0.09238125 0.08848565 -0.22309995
-0.021695072 0.0379983 0.098149955 -0.11920124 0.19218628 -0.05682904 -0.013549374 -0.07508777
-0.06154992 -0.1729821 0.039813265 -0.15959801 0.023967568 0.034717623 -0.16782638 -0.25973767
00000000: f8ef 17be 0d97 a0bd 890b 1f3d 0064 afbd
00000010: d6ac 2dbe 5f17 a3bd e997 783d 89a5 af3c
00000020: 3f38 fcbd b7df 9cbc ddab 16be ae0c 2abd
00000030: b901 0e3e 95d1 223e 6b88 83bd b8a3 893e
00000040: 503f 903d b69c 7cbd fd75 963d 5856 ff3c
00000050: a2a9 a83d 1d04 35be 846f 303c f716 2dbe
00000060: 9f31 0fbd 6532 0d3d 71bd 44bb b028 2dbe
00000070: f52c e83d 72af 503d 96e3 a33d b1fb 8bbd
00000080: 6e80 16be 3017 283b c164 833e cbda 6c3d
00000090: 0611 813c 8b13 a43d 9ed3 88bc c337 0dbe
000000a0: 6502 0ebe bdab 54bd 62fa fc3d c6e0 db3d
000000b0: 6efc 06bd 6132 bd3d f737 b53d 5074 64be
000000c0: ddb9 b1bc 1ba4 1b3d d802 c93d c81f f4bd
000000d0: 7bcc 443e 91c5 68bd 32fe 5dbc 9ec7 99bd
000000e0: c51b 7cbd 3822 31be 3c13 233d a96d 23be
000000f0: a257 c43c 1134 0e3d aeda 2bbe 56fc 84be
