resources/command_nets/1.2x1.2.pt (torch, 165302 bytes, 60 tensors)

weight f4 [64, 8]
000000 e4 99 a0 bd df f1 98 3d b2 1f 61 be 4d f2 cc be
       -0.07841852 0.07468008 -0.21984747 -0.4002861
000010 62 93 de 3d c0 1e 5d 3e 7d d2 51 bd 6f 88 29 3e
       0.10867955 0.21593761 -0.051226128 0.16555952
000020 8a e6 8e 3d 5b 1e dd 3d 35 45 15 bd e0 c8 1a bf
       0.069775656 0.107968055 -0.036442954 -0.6046276
000030 02 d1 ca bd d3 63 fb 3d ee 11 55 3d 5c e8 11 3e
       -0.09903146 0.12274899 0.052019052 0.14248794
000040 a5 e7 d3 3d 12 40 56 be 3f bd 97 3e 25 fd 22 3f
       0.10346917 -0.20922878 0.2963657 0.6366752
000050 62 0e 6a 3d 5a 9d 5f be 96 77 23 3d ca e1 2e 3d
       0.057142623 -0.21837369 0.039908968 0.042695798
000060 93 1d 51 bd ea 97 c6 3e c2 ea be bd e1 cc bc be
       -0.051053595 0.38787776 -0.0932212 -0.3687506
000070 d5 06 d7 bc 90 1e bc 3e 69 f9 89 bd 18 f3 a8 3e
       -0.026248375 0.36742067 -0.06737024 0.32997966
000080 74 0c b1 bb 32 74 8b be 2c 8a eb 3e e8 6f 8a bc
       -0.005403096 -0.27237087 0.46003854 -0.016899064
000090 c0 c0 88 bc e4 74 f8 3d d1 30 f6 bc 46 0c 9d 3e
       -0.016693473 0.1213167 -0.030052574 0.30673426
0000a0 c1 c9 80 bd 10 c0 90 3d bb da 55 be 92 3a 6d be
       -0.062884815 0.07067883 -0.2088422 -0.23166874
0000b0 8f 56 84 3e 20 1d 1c 3e 4d 40 3e be 7b 5f af bd
       0.2584729 0.15245485 -0.18579216 -0.08563133
0000c0 e6 a9 81 bd 47 cf 3a 3d 8c 58 32 bf ce 44 3f be
       -0.06331234 0.04560783 -0.6966636 -0.1867859
0000d0 11 84 38 3d b0 ba 87 3e 22 63 37 3e f7 14 94 3d
       0.045047823 0.2650962 0.1790891 0.07230561
0000e0 22 22 1f be f9 5a 5a bd 09 07 1d bf 51 ee 2e 3e
       -0.15540364 -0.053309415 -0.6133886 0.17083098
0000f0 0f 8b 0f 3d be 6f 6a bd 45 73 1f 3c ce 14 c7 bd
       0.035044726 -0.057235472 0.009732072 -0.09720765
000100 ea d0 2f 3c 59 4a ed bc 24 85 a9 bd 15 90 6a bd
       0.010730961 -0.028966116 -0.08277348 -0.057266314
000110 1b d3 d9 3d ff f5 cd 3e 58 1c 4c 3e 11 53 09 3d
       0.10635968 0.40226743 0.19932687 0.033526484
000120 2d d4 25 3e 2b c7 22 3e 00 0c e1 be a0 40 e7 3d
       0.1619422 0.15896289 -0.43954468 0.11291623
000130 c0 e3 2f bd b2 bc 7e 3e 79 1c 23 3d 79 09 cc 3e
       -0.04294181 0.24876669 0.039822076 0.39850977
000140 09 66 71 be 02 1e 97 3e e3 e8 3d be 92 f9 aa 3d
       -0.2357408 0.29515082 -0.1854587 0.08348383
000150 43 c6 c1 bd e6 22 06 3e 17 f4 a7 3e f8 de 07 3d
       -0.094616435 0.1309925 0.32803413 0.033171624
000160 95 cb ba bd 23 64 15 be 41 cc e3 3e 9e 71 43 be
       -0.091208614 -0.1458898 0.4449177 -0.1908631
000170 4e aa 12 3e 6f f8 1e 3d ef 48 1a 3d bc ab 02 bd
       0.14322779 0.038811143 0.03766721 -0.03190206
000180 d8 43 a5 3d 7f 36 15 3e fe 3c bd be c5 4b eb be
       0.08069581 0.1457157 -0.36960596 -0.45956245
000190 65 03 c2 bb 9d 08 b9 3e 6c e9 e1 bd e3 d7 2a 3e
       -0.005920815 0.36139384 -0.1103085 0.16683917
0001a0 31 b9 b2 bc af 8f 9c 3e 61 78 f5 3d d4 ae 6d 3e
       -0.021816822 0.30578372 0.11985851 0.23211223
0001b0 79 f9 a0 bd 25 6a 50 bd 95 d1 a1 3e 83 f5 86 3c
       -0.07860083 -0.050882477 0.3160521 0.016474491
0001c0 ac 6d ab 3e 46 75 56 3e 2e a1 18 bf 6a e8 14 be
       0.3348211 0.20943174 -0.5962094 -0.14541784
0001d0 f4 94 3a 3c e7 1c 89 bd 2a d4 6a bd cd 16 32 3d
       0.011388052 -0.06694966 -0.05733124 0.043478776
0001e0 67 5f 8c be d0 ba a3 3e 52 96 08 be 01 21 1c be
       -0.27416536 0.31978464 -0.13338593 -0.15246965
0001f0 eb ee 44 3e 2c f2 bc be ef 64 d6 bc e1 90 b1 bd
       0.19231765 -0.36903512 -0.026171176 -0.086702116
000200 48 10 eb 3d 39 ba 47 3e 0b 7c 8c 3e 9c e4 f4 be
       0.11477715 0.19504632 0.27438387 -0.47830665
000210 0a 05 bf bd ec d8 91 be 4a 3c 8d bc 15 ef 94 3d
       -0.09327133 -0.2848581 -0.017240662 0.07272164
000220 7a 7b 3f 3e 87 c5 a0 3d fb a2 24 be 05 dc df 3e
       0.18699446 0.07850175 -0.16077797 0.4372255
000230 e9 17 a6 3c 19 ca a3 be c9 a2 87 be de 70 a5 bc
       0.020275073 -0.31990126 -0.26491383 -0.02019542
000240 58 83 86 3e 39 07 34 3d f5 da cb bd 29 41 d8 3e
       0.26272082 0.0439522 -0.09953872 0.42237213
000250 2b 8e 59 bd 2f 4b 47 be 4c c3 04 3e 8f 51 d2 3d
       -0.053114098 -0.19462274 0.12965125 0.10269462
000260 53 a3 ad be 23 ec 8d 3c 51 3b ea 3e 18 33 24 be
       -0.3391367 0.017324513 0.4574838 -0.16035116
000270 50 95 e1 3d b6 9e 24 be ca f7 30 3e 8b d0 36 bd
       0.11014807 -0.16076168 0.17282024 -0.044632476
000280 5d 20 99 3d 04 42 d5 3c 34 cd 21 3e 1d 20 0f be
       0.07476876 0.026032455 0.15800935 -0.13977094
000290 74 e8 6e 3c 5c 43 80 bc d5 fd 87 3e ec 49 5b be
       0.014581788 -0.01565712 0.26560846 -0.21414918
0002a0 fb 49 68 be 63 c3 49 bd dd ec 10 bf d2 26 0d 3e
       -0.22684471 -0.0492586 -0.56611425 0.1378434
0002b0 d3 a0 2e 3d c2 d7 80 3e fa 5f 2f 3e 64 3b 59 3c
       0.042633843 0.2516461 0.17126456 0.013258789
0002c0 72 d9 76 be 18 43 93 bc 66 00 2b 3f d2 50 d1 3e
       -0.24106386 -0.017976329 0.6679748 0.40881974
0002d0 3c cc c5 bc 47 a7 ad bc 09 bd 77 3d fd f4 29 3e
       -0.024145238 -0.021197928 0.060483012 0.16597362
0002e0 8c cb 1c bc 6b 20 d9 be 72 85 54 3e cd cc 4c 3e
       -0.009570014 -0.42407545 0.2075403 0.2
0002f0 15 9c 9a bc 59 c1 1e 3e 06 ae 24 3e 50 e3 c8 3d
       -0.018873254 0.15503444 0.1608201 0.098089814
000300 8c 85 a7 3d dc 92 33 3e 1e e1 17 3e 12 8b 4e 3e
       0.08179769 0.17536491 0.14831969 0.20170239
000310 62 5d 0f 3e 64 0a 78 3e 6f df 0b bd 7f 60 9f be
       0.14000466 0.24222714 -0.03414863 -0.31128308
000320 5b c0 67 bd 8f f1 8b 3e 4e 63 4c be 91 d1 e0 bc
       -0.05657993 0.27332732 -0.19959757 -0.027443679
000330 96 22 59 3d 69 17 ac be cc 87 eb bd 33 e3 5c 3c
       0.0530115 -0.3361161 -0.115005106 0.013481903
000340 9a 5f 05 3e 5f 18 01 be af 84 cc bd 0f 88 5f 3d
       0.1302475 -0.12606953 -0.09986245 0.054573115
000350 b2 75 cc 3d b4 3a 90 3e c7 21 8c bd 1f 59 1c be
       0.09983386 0.28169787 -0.0684238 -0.15268372
000360 58 d6 72 bb df 9f ae bd 47 35 6b 3e 51 83 b8 3d
       -0.0037054028 -0.08526587 0.22969542 0.090094216
000370 ab 05 05 3e de 16 a9 3d 82 96 0f 3e 9b 46 ba 3d
       0.12990443 0.08256315 0.14022258 0.09095498
000380 e3 78 07 be dc 13 a7 be 35 74 b0 3e 47 04 b1 bd
       -0.13229708 -0.3263234 0.3446366 -0.08643394
000390 49 44 f0 bc 68 8d f9 3d 74 e3 e9 be 11 c0 b1 bd
       -0.029329436 0.12185174 -0.45681345 -0.08679212
0003a0 c0 8e 06 be 0e 33 1b be c0 a5 e9 3e 5e 10 37 3e
       -0.13140392 -0.15156195 0.4563427 0.17877337
0003b0 c6 7c 58 bd 46 95 d9 3e 7d 7d 63 bd 60 a4 c1 bd
       -0.05285337 0.424967 -0.055539597 -0.0945518
0003c0 29 ed ea bb b8 8c ac be cb d6 51 3e 02 fe 0e be
       -0.007169385 -0.3370111 0.20492093 -0.13964084
0003d0 51 ab d3 be a6 61 1a 3e ff 3c f5 bd 73 be 95 bd
       -0.41341642 0.15076312 -0.11974525 -0.07311716
0003e0 93 13 83 3c e2 73 0a 3e 8c 38 7e 3b ea a4 7a 3e
       0.016000545 0.13520768 0.0038791029 0.24476972
0003f0 e3 2e a9 be 4f 20 46 bd c9 ee a6 be 17 cb 18 3e
       -0.33043584 -0.048370656 -0.32604054 0.14921223

bias f4 [64]
000000 ab a7 5e bc 1d f7 b6 3d 05 e1 77 3d c6 00 d3 bd
       -0.01358978 0.08933852 0.06051733 -0.10302882
000010 ff b7 5b bd ba 87 9d bd ad a3 1c 3d 9e c1 47 3b
       -0.05364227 -0.076919034 0.03824203 0.0030480395
000020 50 46 1e bd 41 d3 5e bd cf 1b fd 3b db 63 c6 bc
       -0.038641274 -0.054400686 0.0077242623 -0.024217537
000030 19 8b 7f 3d 3e 07 1b bd 9d b1 96 3d d8 9c 10 bd
       0.062388513 -0.037848704 0.07358096 -0.035305828
000040 8f 23 11 3d 42 eb 98 3d 54 48 51 3d dc 12 0c 3e
       0.035434302 0.07466747 0.051094368 0.1367907
000050 42 0b a9 3c bd 3a 7f bc 31 9f ee 3d da ef 6c 3c
       0.020635251 -0.015577969 0.11651457 0.014461482
000060 4f 21 ff bd 56 22 b0 3d 32 c7 9d bc bc 0f 60 bd
       -0.12457525 0.08600299 -0.019260023 -0.054702505
000070 1a 9c a0 3b b9 69 00 bd 82 9c 7e bc 6c 20 97 3c
       0.0049014213 -0.031350825 -0.015540244 0.018448077
000080 a9 a2 35 3d a4 10 a5 bc a9 83 d1 3d 08 15 e0 3d
       0.044344578 -0.020149536 0.1023019 0.109415114
000090 86 12 65 bd 8b e3 35 3c 23 6f 9b 3d 7d bb 33 bc
       -0.05592587 0.011101614 0.07589557 -0.010969994
0000a0 13 84 06 bd a2 12 8c bb ed 3d 42 bd 29 aa 2e bd
       -0.0328408 -0.004274682 -0.04742234 -0.042642746
0000b0 38 de ac 3a 01 dd 36 3d ce ea 98 3b 5c 5c 3c 3d
       0.0013188785 0.04464436 0.004666663 0.04598652
0000c0 9f d8 2e 3e 57 18 1c bd 25 63 06 3e c8 e6 f3 3d
       0.17074822 -0.03810915 0.13123758 0.119092524
0000d0 43 a5 ce bd d1 f6 01 bd f0 90 fd bd 36 a0 9a 3d
       -0.10090115 -0.031729523 -0.1238116 0.07550089
0000e0 5a a6 02 3c a0 70 b5 bb 08 58 8f 3d 63 30 37 3d
       0.007974232 -0.0055371076 0.069992125 0.04472388
0000f0 1a 0a 33 3d c4 2f b6 3d 03 b9 bc 3c 49 19 b0 bd
       0.043710805 0.08895829 0.02303744 -0.08598573

weight f4 [64]
000000 e4 72 7c 3f cd 34 86 3f 19 d3 af 3f 57 e3 4e 3f
       0.9861281 1.0484864 1.3736297 0.80815643
000010 1e 60 74 3f b0 46 43 3f de 16 a4 3f 95 83 7b 3f
       0.95459163 0.76279736 1.2819479 0.98247653
000020 70 5e 80 3f 81 b8 3f 3f 18 77 5e 3f 76 0c 95 3f
       1.002882 0.74890906 0.8690047 1.1644428
000030 7b 97 89 3f 9c e3 77 3f 33 1a 99 3f 0b 54 4e 3f
       1.0749353 0.9683168 1.196112 0.8059699
000040 67 93 73 3f c4 8b 8b 3f 79 e1 81 3f 8a f9 6d 3f
       0.95146793 1.0902028 1.0146934 0.9295889
000050 d5 b8 6d 3f 69 98 8d 3f c7 e7 a4 3f 83 3b 56 3f
       0.92860156 1.1062137 1.2883233 0.8368456
000060 2e a8 63 3f de 88 6b 3f 7c cd 56 3f c2 f6 54 3f
       0.88928497 0.9200572 0.83907294 0.8318902
000070 91 75 86 3f d3 fa 86 3f 9b 40 57 3f 20 46 50 3f
       1.0504628 1.0545295 0.84082955 0.81357
000080 a5 58 86 3f 3f f0 52 3f 68 18 a4 3f 31 ef 8d 3f
       1.0495802 0.82397836 1.2819948 1.108862
000090 78 03 66 3f 22 30 8a 3f 28 3c 93 3f 6c f6 58 3f
       0.8984904 1.0795939 1.1502733 0.8475101
0000a0 c5 f6 64 3f 83 e6 71 3f a7 86 8e 3f 01 e6 8e 3f
       0.8943904 0.9449236 1.1134843 1.1163942
0000b0 f3 6a 74 3f ee fa 93 3f 31 04 54 3f b3 7f 60 3f
       0.9547569 1.1560953 0.82818896 0.87694854
0000c0 8a 50 ac 3f a9 b2 5f 3f 06 53 88 3f 81 05 76 3f
       1.3462079 0.8738199 1.0650337 0.9610215
0000d0 bf 90 58 3f 1c dd 7b 3f c3 5c 65 3f 92 2f 5f 3f
       0.84595865 0.9838426 0.8959467 0.8718196
0000e0 3c 6b 83 3f c1 4e 74 3f 3e 15 87 3f a7 d6 80 3f
       1.02671 0.9543267 1.0553358 1.0065507
0000f0 d9 8d 67 3f 54 96 6e 3f 17 ac 58 3f 57 a1 84 3f
       0.9045082 0.9319813 0.8463759 1.0361737

bias f4 [64]
000000 10 ce 9e bd 90 a5 60 bc af d4 16 3c 87 0a 1d bd
       -0.07754147 -0.013711348 0.009205981 -0.038340118
000010 7c bb 04 be 3e 1c 9b bd b6 fb bb bc 00 58 35 3d
       -0.12962145 -0.07573746 -0.022947174 0.044273376
000020 b2 ba 7e bd 27 8d 9f bd f0 8d 63 bd 57 c8 5e bd
       -0.062189765 -0.077905945 -0.055555284 -0.054390278
000030 2d 29 93 bd 88 a9 49 3d 1a 4d 22 bc 61 00 3c 3d
       -0.07185588 0.049233943 -0.009906078 0.0458988
000040 2e 6a ad 3d ea b7 54 3d 16 e6 e6 bb 59 4f d2 3c
       0.08467518 0.051933207 -0.0070464713 0.025672602
000050 14 4f ab 3c 3b ad b0 bc 55 95 00 3d a6 54 bc 3d
       0.02091173 -0.021566978 0.031392414 0.09195833
000060 de 44 0d 3d 27 46 7f 3d af 8b e6 3d ed fa 3f bd
       0.034489505 0.062322762 0.11257111 -0.04687016
000070 0d da 82 bd 5e c1 d2 3c 20 7d 1b 3e 6e 7c fe 3d
       -0.06389246 0.02572697 0.1518445 0.12426077
000080 ae 0a ad 39 c5 34 30 3e c2 f2 ea 3c 42 a8 9d 3c
       0.00033005088 0.1720763 0.02868021 0.01924527
000090 a8 1f 76 bc a3 5c 24 3d 63 51 73 3d 2d 6e 05 3e
       -0.015022196 0.040127408 0.05940379 0.1303031
0000a0 3c 34 e4 3d e4 b6 40 3d b1 80 f7 3c eb 56 93 bd
       0.111427754 0.047049418 0.030212732 -0.07194313
0000b0 1f 98 06 3d bc 98 b7 bc 4f 12 2e 3e 23 33 03 3d
       0.032859918 -0.022411697 0.16999172 0.03203119
0000c0 32 be a3 3c f6 f4 0c 3d 59 b7 40 3d a8 92 7d 3d
       0.019988153 0.0344133 0.047049854 0.06190744
0000d0 ac a6 c7 3d e7 0d e5 bc 99 10 e1 3c 9e aa 06 3e
       0.09748587 -0.02796073 0.027473735 0.13151023
0000e0 8b a0 86 bd 6d 02 03 bc 81 a9 59 bd 83 3d 27 3d
       -0.0657359 -0.007996184 -0.053140167 0.040830147
0000f0 af 76 c9 3d 1d 56 22 bb 25 02 1d 3e d9 04 0d bc
       0.0983709 -0.0024770566 0.1533285 -0.008607113

weight f4 [64, 64]
000000 f9 0a b2 3c a1 95 26 be 07 85 90 3d b1 43 0e be
       0.021733748 -0.16268016 0.07056623 -0.1389301
000010 c9 52 09 bc 53 58 8d 3d 66 e4 11 3e 86 db 6b 3d
       -0.008381554 0.06901612 0.14247283 0.0575824
000020 f0 e8 64 bd ff d2 a2 3d 75 4d e8 3d 1d 7a 6c be
       -0.05588621 0.079504006 0.11342899 -0.23093458
000030 82 e0 9f bd bf fa 47 3e 7b 69 4e 3c 20 8c 67 3d
       -0.07806493 0.19529246 0.012598391 0.056530118
000040 59 f2 34 3c 31 33 d4 3e c7 a9 90 be d6 b2 4a be
       0.011044108 0.41445306 -0.2825453 -0.19794783
000050 ee 68 59 3d a4 79 bb be 1a 30 33 3b 21 9c ae 3c
       0.053078584 -0.36616242 0.0027341903 0.021314682
000060 df ef eb bc 37 22 25 3d b1 6a 70 bc d6 79 20 be
       -0.028800903 0.040315833 -0.014673875 -0.15671477
000070 7c eb 9f bd cc 6b 1a be 04 20 73 be ef 32 5d bd
       -0.07808587 -0.15080184 -0.23742682 -0.054003652
000080 13 10 e2 bd 3f bf aa be 64 4d 66 bc d2 e5 7f be
       -0.11038222 -0.33349034 -0.014056537 -0.24990013
000090 f9 f4 87 be 8c 4c 74 3d 92 9a 76 3e 55 17 c8 3d
       -0.26554087 0.059643313 0.24082401 0.09770075
0000a0 6c bc da 3d 9e f6 c8 bc b3 e6 a4 3d 34 5a 19 bd
       0.1068047 -0.024531659 0.08051815 -0.03743954
0000b0 12 b3 97 bc ce 74 2c be cf 0f 0c 3e fb 7d fc 3c
       -0.018518005 -0.16841432 0.13677905 0.03082179
0000c0 02 91 09 3d e9 fc 1c 3e 9c 2d e7 3d 79 bc 30 be
       0.033585556 0.15330853 0.11287996 -0.17259397
0000d0 e7 fb ae be e5 62 29 be 5a 58 bc bd c5 d0 06 3d
       -0.3417656 -0.16541632 -0.09196539 0.032913942
0000e0 06 2b 64 be 03 bb 23 3e 50 92 ad 3e d8 73 62 3e
       -0.22282037 0.15989308 0.3390069 0.22114503
0000f0 d6 a3 d2 3e 4b a3 ed 3d 9d 58 25 3e f7 b5 85 bd
       0.41140622 0.11603411 0.16147085 -0.06528848
000100 1b 10 69 3d 19 69 84 bd ff 25 ae 3c b9 ea 3f bd
       0.056900125 -0.06465358 0.021258352 -0.04685471
000110 4e 03 77 be 04 ce c0 be c9 32 84 3e 5c 3b b1 bd
       -0.24122354 -0.37657177 0.25819996 -0.086539
000120 51 b6 94 3d 17 e9 a0 3c a3 53 9e bd 1b 66 5a be
       0.072613366 0.019642396 -0.07730796 -0.21328013
000130 8a c8 43 3e 97 aa 33 3d eb 39 c7 3e fd 51 e0 3d
       0.19119468 0.04386386 0.38911375 0.10953138
000140 86 ee 98 3e 13 c9 90 3e d6 e0 08 bd 66 66 72 be
       0.2986948 0.28278407 -0.033417545 -0.23671874
000150 cd 72 1e be 3d d5 03 3e 73 3b 82 be d0 fc 01 3d
       -0.1547348 0.12874313 -0.2543598 0.03173524
000160 6c 63 a2 3d 01 87 a9 bc 6f b5 51 bd a2 cd 36 3d
       0.079291195 -0.020694258 -0.05119842 0.0446297
000170 ff 97 02 bd 8e ae 17 be 03 59 96 be 78 21 d0 bc
       -0.031883236 -0.14812681 -0.29364786 -0.025406584
000180 d4 30 54 3d b1 b9 63 3e ea 36 70 be a5 aa 80 3b
       0.05180438 0.22238804 -0.23458448 0.0039265924
000190 d6 01 3f bc cb 2a 95 3d 78 81 72 be d6 b4 5c bd
       -0.011658153 0.07283553 -0.23682201 -0.053883396
0001a0 79 45 ad 3d b8 a7 1a 3d 0c 72 6c be 28 65 b1 bc
       0.084605165 0.037757605 -0.2309038 -0.02165468
0001b0 9e 2a 04 be 99 fd a4 3d 49 f0 82 be 6d f1 9d be
       -0.12906882 0.080561824 -0.25573948 -0.30848256
0001c0 e5 8b b6 3e 83 f1 1a 3e 2b f8 7e be 3e 0c 2b bd
       0.35653606 0.15131192 -0.24899356 -0.041759722
0001d0 fb fd 07 3e 9d e2 cd be 16 59 a8 3c a6 65 3a be
       0.1328048 -0.40211955 0.020550292 -0.18202838
0001e0 11 5a 3f be 3f a1 21 3d b3 b9 20 3e 58 e6 88 be
       -0.18686701 0.039460417 0.15695839 -0.26738238
0001f0 a8 57 d9 bd db 64 33 be c2 f5 5a bd f8 ff 49 bd
       -0.10612422 -0.17518942 -0.05345703 -0.049316376
000200 48 50 73 be c7 97 1c 3e 71 e9 c0 3c 70 ab 77 3e
       -0.23761094 0.15292273 0.023548814 0.24186492
000210 35 5e f0 bd ca 64 47 bd 1f ba 10 3d 66 b4 41 bd
       -0.117367186 -0.048680104 0.03533375 -0.047291182
000220 49 0d ad bd 00 33 1d be a1 b1 22 be aa da 86 be
       -0.084497996 -0.15351486 -0.15888073 -0.26338702
000230 e6 67 bf 3c 21 b5 c4 be 4b e6 0e 3b af d8 19 3e
       0.023364972 -0.3841944 0.0021804746 0.15024064
000240 e3 0d 75 be eb 90 c7 3d 17 5f 0f 3e d2 19 d6 bc
       -0.23931079 0.09744438 0.14001118 -0.026135359
000250 d8 98 ad ba 67 66 72 bd 47 32 07 3e 1e 9b a8 3d
       -0.0013244404 -0.05917969 0.13202773 0.08232711
000260 71 b1 96 3d 43 8c 14 be 3f df 0b 3f eb 38 d9 3d
       0.07358063 -0.1450663 0.5463752 0.10606559
000270 d5 cb 7b be 8b e2 c6 be d2 2a 42 be 95 6b 04 3e
       -0.24589474 -0.38844714 -0.18961647 0.12931664
000280 4a 29 4a 3d 41 52 25 bd 86 a4 29 3e 95 56 66 3e
       0.049355783 -0.040361647 0.16566667 0.22493966
000290 ac 8d 32 3d 92 f1 02 be 05 f5 84 bd a3 50 34 be
       0.04359214 -0.12787464 -0.06492046 -0.17608885
0002a0 87 b3 84 bd fb ab 59 3e 11 48 90 3e ae 5b c0 be
       -0.064795546 0.21257012 0.28179982 -0.37569946
0002b0 18 d2 9a be db 39 5f 3d e2 a8 0c 3e 36 6a 29 be
       -0.30238414 0.054498535 0.13736299 -0.16544423
0002c0 17 8a bc bd 67 9d 89 3e 04 b0 8e bb 5e ac e2 3d
       -0.09206026 0.268779 -0.004354479 0.11068033
0002d0 52 f3 3f be 86 5b 7b 3d 9d dd 14 be 3a 78 a2 3e
       -0.18745163 0.06136658 -0.14537664 0.3173235
0002e0 0f 57 10 be c8 cc d9 bb 22 fb 83 be 7e 02 44 be
       -0.1409571 -0.0066467263 -0.25777537 -0.19141576
0002f0 27 a8 89 3e ca 11 ed 3c 60 89 69 be 37 df 48 bd
       0.26886103 0.028939147 -0.2280631 -0.049041
000300 93 f1 81 bd 5c 0a f7 bd c2 90 f0 be 77 b2 a2 bd
       -0.06344905 -0.12062523 -0.4698544 -0.07944196
000310 9b 6b 92 bc 30 a4 ca bd ca c1 c4 3e 69 da 3e be
       -0.017873576 -0.098945975 0.384291 -0.18638004
000320 41 52 52 bb 71 1e d5 bc 55 f5 7a bd 72 c0 c0 3c
       -0.0032092484 -0.026015492 -0.061269123 0.023529265
000330 d3 25 9b 3e 50 15 a1 bc 4a 4c 1f 3b e1 0e 8a 3e
       0.30302295 -0.019663483 0.0024306946 0.26964477
000340 b1 3e 97 3d fb f2 d5 bc c0 ec e5 39 f7 c6 8b bd
       0.07385004 -0.026116839 0.00043854676 -0.06825059
000350 24 53 5d 3d d6 80 4c be e5 93 01 be 6b bc 80 3d
       0.054034367 -0.19971022 -0.12654074 0.06285938
000360 00 01 20 3e 49 22 6c 3e ac 1b f3 3c 23 0e a8 3e
       0.15625381 0.23059954 0.02967628 0.32823285
000370 8b e2 85 3d 2e e2 6a bd 17 83 b4 3c 41 e2 e8 bd
       0.0653735 -0.057344608 0.022035165 -0.113712795
000380 82 f3 28 bc 9b 74 8e be bf ee 13 be fd 73 8c 3c
       -0.010311963 -0.27823338 -0.14446543 0.017145151
000390 77 8e 3d 3d 27 e3 29 3e 16 86 5f be 43 ac 61 3e
       0.046278443 0.16590558 -0.21828493 0.22038369
0003a0 03 87 da bd 6e 9c 3c bd 6c a9 e8 3d a7 f2 2f bc
       -0.10670283 -0.04604762 0.1136044 -0.010739005
0003b0 4c e0 d1 3b c3 e1 4e 3e 29 8d d0 3d 6b 45 1e 3d
       0.006404912 0.20203309 0.10183174 0.03864042
0003c0 1f 3c a9 3e e4 76 17 be 9b 88 6c 3d 89 f5 86 be
       0.3305368 -0.14791447 0.057747465 -0.26359203
0003d0 7e a7 bf 3e 66 9a 63 3d 5f 77 31 be d4 3a 62 3e
       0.37432474 0.055567168 -0.17330693 0.22092754
0003e0 c9 bf 29 3e b9 d1 18 3e 26 55 5f 3c a5 56 0f 3e
       0.16577066 0.14923753 0.013631141 0.13997896
0003f0 5b d4 60 3e 23 0a 80 3e ef 54 3d 3e 30 18 af bd
       0.21956007 0.25007734 0.18489431 -0.08549535

bias f4 [64]
000000 6e ed 34 3d 8b 95 83 3d 7b fd b9 3d 42 6f 02 be
       0.044171743 0.064250074 0.09081551 -0.12737754
000010 bc 26 5e 3b 1e 7f e1 bd 4d 6e eb 3c 02 45 75 bd
       0.00338976 -0.11010574 0.028739119 -0.059880264
000020 5f a6 53 bd aa e0 88 3b 98 4a 48 bb 5e ff 92 3d
       -0.051672336 0.0041771727 -0.003056204 0.07177614
000030 e6 de e8 3d a3 86 dc 3c 9a 09 77 3d 82 68 8d 3d
       0.113706395 0.026919669 0.06031189 0.06904699
000040 94 57 6d ba d5 f5 1c bd 46 58 f2 3b b9 93 25 3d
       -0.00090538827 -0.03832038 0.007395777 0.040424082
000050 bc 4a c3 3c 4c ff 42 3d af 55 eb bc 55 94 9c bd
       0.023839347 0.04760675 -0.02872738 -0.076454796
000060 7e 7b 3f bd 5f ec 6d bd 8a 53 0b bd 78 e8 34 3d
       -0.04674863 -0.05808675 -0.034015216 0.044167012
000070 d8 9a cb bd 33 38 4b 3c d6 4b 9e bd 4f 22 2f 3d
       -0.099416435 0.012403536 -0.07729308 0.04275733
000080 3f 81 c8 bc 33 40 49 bb 79 e9 7b bc 36 0d ef bc
       -0.024475692 -0.0030708432 -0.015375488 -0.029181104
000090 ef 99 8f 3d ce 59 87 3d ca f2 9d bd d2 3c b5 3d
       0.070117824 0.06608926 -0.07712324 0.08849491
0000a0 fc 52 67 bd 64 e1 f4 3c 71 c3 85 3d 9a 78 18 3d
       -0.056475624 0.02989263 0.06531418 0.03722439
0000b0 57 4a 83 3d 0f c1 8c bd af 9a c6 bd d2 c1 97 bc
       0.064106636 -0.068727605 -0.09697472 -0.018525038
0000c0 21 11 02 bc 1d 28 9f bc 94 ff 99 bb 23 06 6b 3c
       -0.007938654 -0.019428307 -0.0046996567 0.014344725
0000d0 95 94 ef 3d a1 99 71 3d d4 2a ae 3c ee 7f 31 3c
       0.11698262 0.058984403 0.021260656 0.0108337235
0000e0 12 8a f5 3c be 86 b9 bd cc cd 39 3d c6 fa b8 3c
       0.029973064 -0.09058903 0.04536228 0.022580516
0000f0 74 97 3f 3d c3 32 84 bd 1c a3 e9 bc 3b a6 0b 3d
       0.046775296 -0.064549945 -0.02852016 0.034094077

weight f4 [64]
000000 c8 70 c7 3f cc 99 ae 3f 4a 70 e8 3f fe 92 ae 3f
       1.5581293 1.3640685 1.8159268 1.3638608
000010 5f 0f 0e 40 12 1d 94 3f 80 5e 08 40 1f 9c fc 3f
       2.2196882 1.1571372 2.1307678 1.9735144
000020 2e c0 a6 3f 2a ea e9 3f 84 3d 0b 40 fb b9 c4 3f
       1.3027399 1.8274586 2.1756296 1.5369257
000030 c4 a1 01 40 81 06 da 3f 6f c2 e8 3f 86 8c e3 3f
       2.0254984 1.7033235 1.8184336 1.7777259
000040 ac 28 e9 3f 51 74 02 40 8d 40 e8 3f 46 8f ee 3f
       1.8215537 2.0383494 1.8144699 1.8637474
000050 30 7f e7 3f 8d ec 0e 40 f8 d6 e4 3f aa 5c ad 3f
       1.808569 2.233188 1.7878103 1.3543904
000060 59 55 00 40 a9 8e 9d 3f 13 ca fc 3f 44 73 bb 3f
       2.0052092 1.2309161 1.9749168 1.4644551
000070 34 af ae 3f af 97 c9 3f 60 43 0c 40 fb 12 07 40
       1.3647218 1.5749415 2.1916122 2.1105335
000080 e2 f6 da 3f ba 8f ee 3f 62 49 e4 3f 67 ed f1 3f
       1.7106593 1.8637612 1.7834895 1.8900574
000090 f1 bc bc 3f 00 9a 7b 3f b8 49 f3 3f e0 b2 ea 3f
       1.474516 0.9828186 1.9006872 1.8335838
0000a0 d8 3f b7 3f 15 91 86 3f 31 0c fe 3f a0 ad e8 3f
       1.4316359 1.0513026 1.984747 1.8177986
0000b0 c4 7c d4 3f 16 69 ed 3f c2 41 01 40 a0 9a 07 40
       1.6600575 1.8547695 2.0196385 2.1188126
0000c0 b0 8c 02 40 6f 14 09 40 0c 86 ea 3f af f7 b9 3f
       2.039837 2.1418722 1.8322158 1.4528712
0000d0 c3 1c b0 3f c2 ff e7 3f 6b 95 b8 3f 81 e0 a8 3f
       1.3758777 1.8124926 1.4420599 1.3193513
0000e0 98 a1 ba 3f 40 9c e1 3f d5 a0 f0 3f 4f ed f7 3f
       1.4580564 1.7625809 1.8799082 1.9369296
0000f0 48 f4 07 40 75 6f eb 3f 09 2f 7d 3f 5b b3 94 3f
       2.1242847 1.8393389 0.98899895 1.1617235

bias f4 [64]
000000 7b 87 91 bd 8a 8d aa 3d 79 01 eb 3d 75 1c 41 bd
       -0.07105919 0.08327778 0.1147489 -0.04714628
000010 96 44 59 3d 4b 2b be bd 73 e5 c7 3c df fd dd bc
       0.053043924 -0.09285601 0.024401402 -0.027098594
000020 12 38 11 be 0c 38 86 be bc b3 d8 bc 0c 25 d1 bd
       -0.14181545 -0.26214635 -0.026452892 -0.10212144
000030 cc 71 53 3e 8b 87 fd 3c 68 5d 31 be e5 97 59 3d
       0.20648879 0.030948421 -0.17320788 0.053123374
000040 84 2f 87 bd 9d b3 6b 3d a6 bf b5 3d c9 35 64 3d
       -0.0660086 0.05754434 0.08874445 0.055715356
000050 89 e1 00 bd 3c e7 48 bd 65 61 00 3d 54 15 6f be
       -0.031465087 -0.049048647 0.031342883 -0.2334798
000060 dd 60 66 3d a3 18 6b 3c 2a 1e 12 bd 01 05 04 3d
       0.05624472 0.014349136 -0.035673298 0.032231335
000070 8f 01 e6 bd 64 a2 00 bc 8c 41 ae 3c b5 df 9b bd
       -0.11230766 -0.007851217 0.02127149 -0.07611028
000080 1d 6d 3d 3e fb c4 1d 3e ab 13 e2 bc aa cc 3e bd
       0.18498655 0.15407173 -0.027597269 -0.0465819
000090 c0 d4 0a 3e 8e 68 5f bb d5 5f 57 3c 90 fa 55 bc
       0.1355772 -0.003408942 0.013145407 -0.013060227
0000a0 c5 d4 a1 bd 5e ca f1 bd 95 0a a5 3d 6f 58 3f 3e
       -0.07901911 -0.118061766 0.08058659 0.18686078
0000b0 e5 55 6d 3d 14 13 ad bd b1 c8 15 be 1f 6b c1 3d
       0.057943244 -0.084509045 -0.14627339 0.0944426
0000c0 ee c4 c2 3d 06 b7 c0 bd 7c 42 f5 bd 7e 59 2d be
       0.095102176 -0.09409909 -0.119755715 -0.1692867
0000d0 ef 01 62 3e 67 7f d7 bb 7a 3b f5 3d cf 76 fb bd
       0.2207105 -0.006576467 0.11974235 -0.1227852
0000e0 fd fb 8b bd ed ef 91 bd e1 23 6f bd 39 a6 1e 3e
       -0.06835172 -0.0712584 -0.058383826 0.15493096
0000f0 6d e5 f8 3c 0c d7 44 3d f2 04 ff bd d4 3e 8d bc
       0.030382836 0.048056647 -0.12452115 -0.017241873

weight f4 [3, 64]
000000 f6 4e 2c 3e ec 0e 7a be 54 cd 0a 3e 36 bd 87 be
       0.16826996 -0.24419755 0.13554889 -0.26511544
000010 b6 dd 61 bf 7d e4 05 be 17 95 47 3f 16 32 36 bf
       -0.8822893 -0.13075443 0.7796187 -0.71170175
000020 e9 97 c8 bc 39 ae e8 3e c6 e3 3a 3f e4 74 37 be
       -0.024486499 0.4544542 0.73003805 -0.17915684
000030 87 82 1e bf 7b 0b fc 3e ea 9a 44 be 54 b1 ac bd
       -0.6191792 0.4922751 -0.1919972 -0.0843226
000040 61 0e 44 3d f4 9b 40 bf 4e ed fa be f6 dc e1 3e
       0.047865275 -0.75237966 -0.49009174 0.44113892
000050 bb bc 86 3e d6 e0 10 3f 84 69 d7 3e 34 b5 e7 3c
       0.26315865 0.5659307 0.4207269 0.028284647
000060 a3 59 eb be f8 38 7b 3e 40 68 04 be 00 a3 18 be
       -0.45966825 0.2453345 -0.12930393 -0.1490593
000070 ad f3 2a 3e 82 97 e4 3e de 11 80 3e 1d ef 4a 3f
       0.16694517 0.4464684 0.25013632 0.7927111
000080 77 80 5f bd f7 f9 08 bd 15 e7 96 be 11 4c 9c be
       -0.054565873 -0.03344151 -0.29473177 -0.30526784
000090 2b 51 73 bc c9 28 92 3d 77 b8 0c bf a4 4c d7 bc
       -0.014850895 0.071366854 -0.5496897 -0.026281662
0000a0 fb 8a 10 be 35 44 e1 bd f7 2e e6 3d 7b 6f a8 3e
       -0.14115517 -0.109993376 0.112394266 0.32897553
0000b0 7d b2 65 3e 84 89 65 be ac f3 eb 3e cd c3 27 be
       0.22431369 -0.2241574 0.46084344 -0.16383286
0000c0 f0 c0 d4 be 00 5e 3e 3f 4b c7 da 3e cd 19 8e 3e
       -0.4155345 0.7436218 0.42730173 0.2775406
0000d0 3f 18 d3 3d 93 38 ff 3e 4a 7a 34 3e da 08 82 3e
       0.10307359 0.4984785 0.17624775 0.25397378
0000e0 cf f1 90 bd c8 a5 19 bf 8d cd 8e 3e 11 16 2b bf
       -0.07077371 -0.6001859 0.27891198 -0.66830546
0000f0 38 44 58 bf d9 c0 24 bf f2 94 33 bd 38 56 4c 3e
       -0.84479094 -0.6435676 -0.043843217 0.19954765
000100 3a b9 c2 3e b6 c9 b0 3d 3f 38 17 3f a3 fa 96 bd
       0.38031942 0.08632223 0.590702 -0.07372024
000110 f5 23 52 3e e1 47 f3 bd 19 a7 3a bf 89 b4 ec be
       0.20521529 -0.11878944 -0.7291122 -0.46231487
000120 1d 73 92 3e 6e 94 2e 3d 0e 80 3d 3f fe 43 df 3e
       0.2860345 0.042622022 0.7402352 0.4360656
000130 f4 1c f5 3e 5b 1c 8f bd 4b ef 1b 3f da ba 17 bf
       0.47873652 -0.0698783 0.6091201 -0.5926949
000140 0a 48 22 3f 86 99 a6 be 67 7c fa be 80 98 0b 3f
       0.6339117 -0.32539004 -0.48923036 0.5452957
000150 66 16 1c 3f b3 53 58 3f a3 07 05 bf 05 48 d3 3d
       0.6097168 0.84502715 -0.5196478 0.10316471
000160 e1 82 35 bf 2c ad 4f bd 36 cd 50 3f 0f 9e b4 be
       -0.7090283 -0.05070226 0.8156313 -0.3527684
000170 1e 2d 78 be e6 c0 51 3e ef dc 6f bf ff 95 02 3e
       -0.24235961 0.20483741 -0.9369649 0.12752531
000180 c8 71 05 bf 67 cf 27 bf 6f 80 19 bf 3c 67 2a bf
       -0.5212674 -0.65550846 -0.599616 -0.66563773
000190 64 2f 9d 3e c7 9a 84 3d 3f 61 0e bf bb 0f 38 3f
       0.3070022 0.06474834 -0.55617136 0.71899
0001a0 f3 18 b3 be 3e 82 c3 bc 12 f6 3a 3f 09 3f 10 bf
       -0.34979972 -0.023865815 0.73031723 -0.56346184
0001b0 47 72 ff 3e cd 3f 2c bf 82 49 11 bf a1 47 67 bf
       0.49891874 -0.6728485 -0.5675279 -0.9034367
0001c0 6c 5c 34 bf 4e 29 06 3f 78 e1 f0 3e d9 19 3e 3e
       -0.70453525 0.52406776 0.4704702 0.18564548
0001d0 e0 96 56 be 1f d9 97 be c0 57 84 3e d7 30 a7 3d
       -0.20955992 -0.29657838 0.25848198 0.08163612
0001e0 51 e2 d4 3e c1 57 df 3d dc 2c 37 3f 63 28 a2 be
       0.41578916 0.109054096 0.71552825 -0.31671438
0001f0 88 7e f3 3e d3 89 e4 3b 1f f2 56 3d 72 55 e2 3d
       0.47557473 0.0069744377 0.052477 0.11051454
000200 93 40 14 be 3a 4a ed 3d a5 4d 9e 3e 2d 42 e5 bc
       -0.14477758 0.11586423 0.30918613 -0.027985657
000210 9d 21 b8 3e c5 e5 ca bd b0 00 2d be 7e 73 99 3c
       0.35963145 -0.09907106 -0.16894794 0.018731829
000220 1e c7 0b be c8 de 18 bf 97 68 35 be a0 7d 1a be
       -0.13650176 -0.5971494 -0.17715679 -0.15086985
000230 8d 7c e5 3e 79 9e 3f bd 3e 84 95 be 1e b7 14 3e
       0.44821587 -0.04678199 -0.29202455 0.14522979
000240 67 54 64 be 5e 81 46 3e b0 54 78 3e 6f 30 ff 3d
       -0.22297822 0.19385287 0.24251056 0.1246041
000250 0d 48 34 bd 50 79 f8 bd cf 0e da 3c c2 cd b8 be
       -0.044014025 -0.121325135 0.02661839 -0.3609448
000260 24 06 06 3e 36 a0 16 3d df 9d 63 bd 0c 55 46 3d
       0.1308828 0.036773883 -0.05557048 0.04842095
000270 00 6f 37 be 43 bc 19 bd a7 67 61 bd 90 3c c7 be
       -0.17913437 -0.037533056 -0.05503049 -0.38913393
000280 26 02 8d 3e 47 2e ac 3e ed c3 33 be ec 53 0b be
       0.27540702 0.33629057 -0.17555209 -0.13606232
000290 05 77 8a 3e df c6 1c 3c e9 f5 b6 bc 08 6a 0a 3d
       0.2704393 0.009568899 -0.022334056 0.033792526
0002a0 44 cb d1 bd 09 50 82 bd 11 fb 4c 3e b2 d7 b6 3e
       -0.10243848 -0.06362922 0.20017649 0.35711437
0002b0 77 55 12 3e db be 51 be 1a ad 03 bf a3 d9 49 3e
       0.14290415 -0.20482962 -0.5143601 0.19711928
0002c0 07 b4 8b 3e 96 95 bc be 58 7d 9b be 48 76 7d be
       0.27285787 -0.36832875 -0.30369067 -0.24752152
0002d0 ae 75 9f 3e 91 58 cb bd eb ba 8a 3e 51 7d 55 be
       0.3114447 -0.09929002 0.27095732 -0.20848586
0002e0 1f 55 cf bc d3 eb 8c bd c5 23 7a bc 65 c1 c4 3e
       -0.025309144 -0.068809174 -0.015267317 0.38428798
0002f0 38 bf 76 3e da de 50 3e 6a 86 ad bd e5 57 8f bd
       0.24096382 0.20397511 -0.08472903 -0.069991864

bias f4 [3]
000000 28 01 92 3c 42 68 1d bd 83 f2 33 3e
       0.017822817 -0.038429506 0.1757298

_bias f4 [3, 1]
000000 80 0e 69 40 1b b1 60 40 8b f6 70 40
       3.64151 3.5108097 3.7650478

weight f4 [64, 8]
000000 dc 45 0a 3e f7 1e ac bd 83 2a 8c be cc 32 8d 3d
       0.13503212 -0.084043436 -0.27376184 0.06894454
000010 c0 7d 14 3e 7a 18 64 3d e0 f6 03 bd 52 f7 5f 3e
       0.14501095 0.055687405 -0.03221786 0.21871689
000020 0c 62 e5 bd 3b a4 42 3e d9 c9 d4 3e 1c 5a 86 be
       -0.112003416 0.19007961 0.41560248 -0.26240623
000030 f7 9d 80 3b 81 f4 fb be 9b 45 1c 3e d4 6a d7 3b
       0.003925081 -0.4920998 0.15260927 0.006574014
000040 45 3f 00 3e dc 9f a3 bd da 8d 41 be 59 bf c1 3c
       0.12524135 -0.07989475 -0.18901768 0.023650812
000050 ea 5d 0a bd 23 ce 96 bd 3c b7 33 bd 24 dd 0d 3e
       -0.03378097 -0.07363536 -0.043875918 0.1385389
000060 25 d2 dc 3e fe 97 a9 3e f7 f9 a6 3c 78 71 1d be
       0.43129078 0.33123773 0.020382864 -0.15375316
000070 3a 87 5e bd 2e 19 2d be a7 fe 20 be 5e 0c 11 bd
       -0.05432818 -0.16904137 -0.15722142 -0.035412185
000080 09 c9 44 3e 33 6f 9b bd 36 e6 c6 be b0 ab 88 bc
       0.19217314 -0.07589569 -0.38847512 -0.01668343
000090 81 b7 ab 3b e5 dd 96 3e 06 d4 65 3d 94 b1 22 bc
       0.005240381 0.29466167 0.056110404 -0.009930033
0000a0 a3 62 c1 bc 43 f7 46 3e 9b 88 8b bd 9e e0 e6 3d
       -0.023606604 0.1943026 -0.06813165 0.11273311
0000b0 6c 99 12 3e 7d 8c 30 3e 4f b3 75 3b 30 cc 64 3d
       0.14316338 0.17241092 0.003749091 0.05585879
0000c0 e6 a0 d3 3c 6f 9b d1 3c f0 ef 4f bd 94 90 04 bd
       0.025833558 0.025586812 -0.05076593 -0.032364443
0000d0 29 08 92 bb 5c e1 69 3e 04 ad bf 3e 30 17 a1 bb
       -0.004456539 0.22839874 0.37436688 -0.0049160942
0000e0 97 b0 82 be 2f fb 1b be dc 48 bd 3e c8 20 97 3e
       -0.25525352 -0.15232538 0.3696965 0.29517198
0000f0 b1 e5 1c 3c bc e0 e1 be 35 89 11 3e 4a e7 67 3c
       0.009576247 -0.4411677 0.14212497 0.014154265
000100 8e 76 6d bc 95 34 00 3f de 13 bf bd 30 2a 05 bf
       -0.014493598 0.50080234 -0.09329961 -0.520175
000110 45 a7 a1 bb b2 63 4d 3d 2a 5e a5 3a 5e 2b ea bb
       -0.00493327 0.050143905 0.0012616564 -0.007146283
000120 93 e6 ac be f7 1d b2 bd 00 ba 1d 3f 4c 68 4b 3e
       -0.33769664 -0.086971216 0.6161194 0.19864005
000130 a1 ce 29 bb 67 ad 23 be ad 04 84 bd 12 4d 36 ba
       -0.0025910514 -0.15984116 -0.06446204 -0.00069542334
000140 b7 28 c3 bd 5d 18 b6 3c 0d 53 2b 3e 65 db b0 3d
       -0.0952925 0.022228414 0.167309 0.08635596
000150 5e bd f9 3c a3 3e d2 3e de 2e 2b 3d 24 51 53 3c
       0.030485805 0.41063413 0.041792743 0.012897763
000160 53 6a 05 be d9 1d 9d bd 5d f3 da 3d 9e c2 26 3e
       -0.1302884 -0.076717086 0.10690949 0.16285178
000170 d0 ea 99 bd dd f8 8c 3d 84 72 cb 3b 75 70 fa 3d
       -0.0751549 0.068834044 0.0062087197 0.12228481
000180 5b 12 97 bc 01 36 3f bd e2 0e 01 3e f1 0a 88 3d
       -0.01844137 -0.04668236 0.12603334 0.06642712
000190 9c 1e 07 3d 0c 0b 9d 3c 6c 04 8f bd d7 d0 a6 bd
       0.032988176 0.019170307 -0.06983265 -0.08145302
0001a0 75 3f 72 be 76 f0 c9 bc 16 1c 9c 3d 2c cf cb bc
       -0.2365702 -0.024650794 0.076225445 -0.02487906
0001b0 fc c6 b8 b9 ca 17 b4 3d 67 a0 c2 be 25 60 47 3b
       -0.0003524347 0.087936 -0.38013002 0.0030422297
0001c0 51 3f b0 3d b3 c8 3e be 58 88 11 be bf 19 90 3d
       0.08605827 -0.18631248 -0.14212167 0.07036161
0001d0 9e ae e2 3d 7e a6 d3 be f9 02 25 bd da 5d 62 bc
       0.11068462 -0.4133796 -0.040286038 -0.013816321
0001e0 5e 5c f2 bd 67 2f 4a 3e 0c de db 3e 48 e0 0d bf
       -0.11834024 0.19744645 0.42942846 -0.5542035
0001f0 32 df 03 3c 07 aa 44 3d a2 07 3a bd e5 5b b4 3b
       0.008048819 0.048013713 -0.045417435 0.0055041187
000200 b0 ae bc 3b e1 94 75 be e8 4e 80 3e d5 15 27 be
       0.005758129 -0.23982574 0.250602 -0.16316922
000210 a7 ab 25 3d 1d 4f 1e 3e 71 52 fc 3e b5 7c 55 be
       0.040446904 0.15459867 0.49281648 -0.20848353
000220 d7 7e 71 b9 fc 9e c8 3c 83 5f d0 3d 53 30 cb bb
       -0.00023030803 0.024489872 0.101744674 -0.006200829
000230 18 ff 1e bd a0 21 37 bc bc 04 d2 be 0c b2 43 be
       -0.038817495 -0.01117745 -0.41019237 -0.19110888
000240 aa 3b 8d 3e 72 a7 2e 3d 03 5d d1 3e 38 22 97 be
       0.27584583 0.042640157 0.40891275 -0.29518294
000250 47 5f fa bc 03 d7 2e 3d 35 ce 04 3f e9 2d b9 3c
       -0.03056301 0.04268552 0.51877147 0.0226049
000260 2e 2b b3 bd c8 73 07 3e 17 47 49 3e 38 89 fc 3d
       -0.0874847 0.13227761 0.19656025 0.1233086
000270 95 f5 a7 bb 7c c2 b1 bc 7b 6d cc bc fe 47 94 bc
       -0.005125711 -0.021699183 -0.024954548 -0.018100735
000280 af e3 08 be 0e 0d b3 bd 3d 15 15 bd f3 d0 c9 3e
       -0.13368104 -0.08742724 -0.036397208 0.39417228
000290 d3 ff 40 3c 8c c7 2d be 1a ee d8 be 22 ca 41 bb
       0.011779743 -0.16970652 -0.42369157 -0.0029569943
0002a0 26 dc fc 3c 1a 84 07 bd 6c 9a d4 be 6c 37 d6 3e
       0.030866694 -0.033084966 -0.41524065 0.4183916
0002b0 95 ee 32 bd 93 90 9c 3d dc 8f 3d 3d 91 32 36 3e
       -0.04368456 0.07644763 0.046279773 0.17792727
0002c0 a0 f9 00 bf 74 76 ec 3e 74 ae 2e 3f 7d 77 3f bf
       -0.503809 0.46184123 0.68234944 -0.747917
0002d0 72 47 e5 bb 65 19 e1 bd 80 d4 a8 3d 55 d1 94 ba
       -0.0069970423 -0.10991172 0.08243656 -0.001135389
0002e0 8e 4a c3 bd a0 40 c7 bd 2c a5 86 3e 0a 27 b1 bd
       -0.095357046 -0.09729123 0.2629789 -0.08650024
0002f0 a2 cf ec bc 06 91 b3 3d 81 aa a2 3c fb c5 b5 3e
       -0.0289076 0.087678954 0.019856693 0.3550261
000300 bd d6 3a 3d 62 e7 f9 be 81 2b 71 bc b0 e2 4c 3f
       0.045614947 -0.48809344 -0.014719845 0.800334
000310 dc f1 6b bb 86 2f de 3c be fc ef bd 9e f7 58 bc
       -0.0036002314 0.02712227 -0.117181286 -0.01324263
000320 72 14 70 bd 43 e1 20 3e cf 3f 44 bd 77 17 61 be
       -0.05861325 0.1571093 -0.047912415 -0.21981607
000330 4c 9d c4 3d 8d 44 f4 3d b1 13 0c bd 51 f5 d4 bd
       0.096003145 0.119271375 -0.034198467 -0.10398353
000340 45 5d 22 3e be 63 c6 bd 18 41 49 be f2 c6 0a be
       0.15855892 -0.09686993 -0.19653738 -0.13552454
000350 f2 1d 42 bc cc 3c 2b 3e c5 8e 2b 3e 44 27 af 3e
       -0.01184796 0.16722411 0.16753681 0.34209645
000360 38 de 07 3c 75 88 09 3d 61 6a 48 3d a6 54 7a bd
       0.008292727 0.0335774 0.048929576 -0.061115883
000370 a8 35 13 bb d5 46 0c 3f 9b 6a a1 be 25 d8 39 bc
       -0.0022462402 0.5479558 -0.31526646 -0.011343037
000380 9e 6a a0 be 88 46 7d 3e 49 e2 17 bd ed d8 25 be
       -0.31331342 0.24733937 -0.037081037 -0.16196032
000390 39 26 f0 3a 5d 7d af 3d ee 41 b4 bd 91 9f 63 bc
       0.0018321938 0.08568833 -0.088016376 -0.013893024
0003a0 e5 9f 03 bf 66 68 c5 3d fe e8 2a 3f 16 1a cc bb
       -0.51415855 0.09639053 0.6676177 -0.0062286956
0003b0 68 77 45 3b dd 01 6d 3e 61 4e 23 3e 8a 11 a5 3b
       0.0030130986 0.23145242 0.15947868 0.005037491
0003c0 a5 7e 09 be c7 65 14 3e 89 68 0b 3d 21 0e 65 bd
       -0.13427217 0.1449195 0.03403524 -0.055921678
0003d0 75 7a 2c 3d 2e c3 3a 3e 01 19 ae 3e 4b 4d 3b bd
       0.04210897 0.18238518 0.3400345 -0.04572801
0003e0 b0 cb 16 3e be 66 10 be 65 ca 1d be 9a 09 8f 3e
       0.14726138 -0.14101693 -0.15409239 0.27937013
0003f0 9f 5b 5e bd 4f f4 c8 3c a9 0a 2a bd 8c 4b 9c 3c
       -0.054286595 0.024530558 -0.041514073 0.019078992

bias f4 [64]
000000 8a e8 79 bd 3e 42 9d bc 81 4f f8 3d b8 e4 a7 3d
       -0.061012782 -0.019196626 0.12124539 0.081979215
000010 d9 b1 83 3c 62 4b 9b bd 04 ae 4d 3d c9 b4 4b be
       0.016076015 -0.075827375 0.050214782 -0.19893183
000020 b4 2d a7 be e4 d2 fc be d3 6e aa be 4d 8a 10 3e
       -0.32652056 -0.49379647 -0.33287677 0.14115258
000030 38 67 38 3d 21 fc 21 be 1f b4 4e be b7 ad a7 bd
       0.045020312 -0.15818836 -0.20185898 -0.0818743
000040 f1 78 c1 bd c6 c0 97 3c 72 0d 84 be 55 00 9d 3d
       -0.09446896 0.018524539 -0.25791508 0.07666079
000050 f1 34 5c be c3 af a0 bd b1 a9 11 bf c7 75 89 3d
       -0.2150457 -0.07846024 -0.56899554 0.06711917
000060 db 70 82 be b1 0b 62 3d 8f d9 c7 bd 0a 5a 4e 3c
       -0.25476727 0.05518693 -0.09758293 0.012594709
000070 bb 15 9b be 7f da 65 be 83 ab 8a 3d f7 0e b1 3e
       -0.30290017 -0.22446631 0.067709945 0.3458173
000080 26 06 0d be 2c 58 d4 3b 61 42 fe 3d b7 48 ba be
       -0.13771877 0.0064802375 0.124150045 -0.36383602
000090 c3 eb 23 be bf d5 fd be a6 99 79 3d 3d 18 11 be
       -0.16007905 -0.49577138 0.060937546 -0.14169402
0000a0 0c a6 b7 bd 8a 9c 24 3e db 31 c9 bd 25 32 05 be
       -0.08967218 0.1607534 -0.09823962 -0.1300741
0000b0 e4 3d 32 bc b1 ad 5c be 26 38 f6 3d 9b 3c a3 bd
       -0.010879014 -0.21550633 0.12022428 -0.07970544
0000c0 04 1b 14 be 3f 26 39 be 28 03 f0 3d a2 47 c2 be
       -0.1446343 -0.18080996 0.11719352 -0.37945276
0000d0 32 33 e1 3d 79 d6 43 bd 60 44 ff 3e 9d 81 a4 be
       0.10996093 -0.04781196 0.49856853 -0.32130137
0000e0 5c 76 6f 3c 43 40 b1 be 33 41 a9 bc 56 ce 75 3e
       0.014615621 -0.3461934 -0.020660972 0.24004492
0000f0 13 9b 7d be b0 09 39 3d 3d 22 30 be 79 32 07 3e
       -0.24766187 0.045175254 -0.17200561 0.13202848

weight f4 [64]
000000 06 c5 3f 3f 8c 31 78 3f c5 c2 77 3f 49 48 64 3f
       0.7491001 0.969506 0.9678157 0.891728
000010 75 fe 65 3f de 5b 3f 3f 8a 75 83 3f 31 03 71 3f
       0.89841396 0.74749553 1.0270245 0.94145495
000020 01 d7 ad 3f 3d 30 94 3f 4e a4 72 3f 28 4a 42 3f
       1.3581239 1.1577221 0.9478196 0.75894403
000030 17 e5 69 3f 19 59 51 3f 4c 00 23 3f 24 31 84 3f
       0.9136519 0.8177658 0.6367233 1.0327497
000040 d1 2a 48 3f f1 f3 62 3f 81 c4 39 3f b7 a3 65 3f
       0.7819033 0.88653475 0.72565466 0.89702934
000050 6d 81 81 3f 4c 04 42 3f d6 33 ce 3f 3e d0 55 3f
       1.0117623 0.75787807 1.6109569 0.8352088
000060 3e 30 b6 3f fe 57 37 3f 41 a2 5f 3f be 17 7d 3f
       1.4233472 0.7161864 0.87356955 0.9886435
000070 cc c7 5d 3f 8c 59 81 3f 4d 63 34 3f d3 53 81 3f
       0.8663299 1.0105453 0.7046402 1.0103706
000080 b9 01 3d 3f f0 b7 62 3f 5a c9 75 3f c8 1c 99 3f
       0.73830754 0.88561916 0.96010363 1.1961908
000090 d9 93 7a 3f 59 ad 8d 3f 7b 10 86 3f 43 b9 7a 3f
       0.9788185 1.1068527 1.047378 0.97938937
0000a0 a1 ec 50 3f 02 9b 79 3f 2c 40 70 3f 52 b9 84 3f
       0.8161107 0.9750215 0.9384792 1.0369055
0000b0 8e bc 62 3f b8 4f 79 3f bb 5e 6a 3f 8b 6c 4f 3f
       0.8856896 0.97387266 0.915508 0.81025
0000c0 a9 f8 a5 3f 08 25 34 3f 1a dd 6f 3f 4c cf 93 3f
       1.296651 0.70369005 0.9369675 1.1547637
0000d0 64 7f 81 3f 4c 12 89 3f 29 d8 5c 3f b4 d5 b6 3f
       1.0117002 1.0708709 0.86267334 1.4283967
0000e0 0a 8f 7f 3f 8f 47 c5 3f 6d d3 82 3f 7d 43 40 3f
       0.99827635 1.5412463 1.0220772 0.7510298
0000f0 88 88 64 3f 8e 65 84 3f fe 81 72 3f 4c dd 7c 3f
       0.8927083 1.0343492 0.947296 0.9877517

bias f4 [64]
000000 5b 62 98 bd 97 1c e2 3c 31 81 37 bd 3b f7 c4 3c
       -0.07440635 0.027601523 -0.04480094 0.02404367
000010 c8 f6 7d bc 0a 2a b3 3a af e7 03 bd c3 6b c1 3d
       -0.015500732 0.0013669145 -0.032203373 0.09444382
000020 1c 0b c3 3d 20 39 1d bd 46 7c 35 3d 72 fa a1 bc
       0.09523603 -0.038384557 0.04430797 -0.019772742
000030 1b d3 2e bd eb 7b 01 3d 16 cb 93 3d 85 5a f9 3c
       -0.042681795 0.031612318 0.0721647 0.03043867
000040 33 48 3e bb a2 87 3a 3c 1b 41 c2 3d 1d 61 7d bc
       -0.0029034733 0.011384876 0.09485074 -0.015465048
000050 47 38 c5 bc 1f cb 4c 3d c2 2e 68 bd 17 11 0c bd
       -0.024074687 0.0499984 -0.056685217 -0.034195986
000060 cc 72 17 3e 4a 3b cb bd d4 37 09 3c 6f b5 12 bd
       0.14789885 -0.09923418 0.008375127 -0.03581756
000070 4e 6b f2 3a aa fc b3 3d 90 00 fc 3a 63 90 1b bd
       0.0018495114 0.08788426 0.0019226242 -0.037979495
000080 f6 d0 8d 3c d6 3c 98 bd e1 cb c2 bc a4 29 e4 3c
       0.017311554 -0.074334785 -0.023778858 0.027851887
000090 e9 dc 25 bd a2 1f e4 bc 38 c8 23 bd 45 99 1a 3d
       -0.04049388 -0.027847115 -0.039985865 0.037743825
0000a0 21 0f c3 3b 69 20 3b bd 36 91 6d bc c4 56 19 bd
       0.0059527312 -0.045685206 -0.014499953 -0.03743626
0000b0 7d e4 7d bd dc 4e 31 3c ea 36 67 bd 35 69 09 3e
       -0.06198548 0.010822024 -0.056448855 0.1341904
0000c0 19 59 ad 3d bb d5 83 bd 63 34 b5 bd 63 7c a7 3c
       0.0846426 -0.0643725 -0.088478826 0.020445054
0000d0 7b dc fc bc ea 53 98 3b fb 52 58 bd 1c 9c dc 3d
       -0.030866852 0.004648675 -0.05281351 0.10771963
0000e0 d4 db 61 bd 8e 65 f0 3d e9 61 3d 3d f1 8f 88 bd
       -0.055141285 0.1173812 0.046235953 -0.0666808
0000f0 0f f3 61 3d 43 3a 17 bd ba b6 f5 3b cc c2 0f bd
       0.05516344 -0.036920797 0.0074985893 -0.035097882

weight f4 [64, 64]
000000 a4 f3 4e 3e f2 ca 43 3e 00 3e bd bc 8f 9a 45 3d
       0.20210129 0.19120386 -0.023100853 0.0482431
000010 7b a2 f6 be 42 74 f0 bd 4e 74 62 bd 50 cd 9d bd
       -0.48170838 -0.117409244 -0.055286698 -0.07705176
000020 1c a5 83 3f 9d 22 2a 3e 39 d3 4f bc b2 02 ce be
       1.0284762 0.16614766 -0.012684637 -0.4023643
000030 6d 98 e4 3d bc 80 0a 3c 82 9e 26 3e ed 08 a7 3e
       0.111618854 0.008453544 0.16271403 0.32623997
000040 59 eb 2c be 99 5f 78 3e 01 28 4a 3e b1 b4 8f bd
       -0.16886653 0.24255218 0.19741823 -0.07016886
000050 ef 7f 6b be 5a ab c8 3d 41 a4 8f 3f 01 a0 81 3e
       -0.22998022 0.09798308 1.1222001 0.25317386
000060 80 19 44 bf d0 62 09 3d 14 ea 9a bd af fb 11 be
       -0.7660141 0.0335415 -0.07564178 -0.14256166
000070 19 b3 22 3e ba ff a0 3e 0e 05 5a 3c 17 64 84 3e
       0.15888633 0.31445104 0.013306869 0.25857612
000080 bb 74 d2 3d 33 c8 b5 bd a9 cb 03 be 3a 70 5d bf
       0.10276171 -0.088760756 -0.12870659 -0.8649937
000090 2e 8b 7b be 28 ef f1 be 1a ba 66 3e 22 07 40 3e
       -0.24564812 -0.47252774 0.2253193 0.18752721
0000a0 73 59 88 be 62 5b 77 be b6 1d b9 3c e9 ea 62 3b
       -0.26630744 -0.24155954 0.022597175 0.003462488
0000b0 e0 d1 81 be fa 6b c3 3e 0f e3 9a 3e 58 4e 04 be
       -0.25355434 0.38168317 0.30251357 -0.12920511
0000c0 ac dd 2a 3e 31 03 78 3e 33 c7 f1 be 85 cc d4 be
       0.16686124 0.24219967 -0.4722229 -0.41562286
0000d0 fd 9f 27 3e b6 3f ff bd 78 30 c0 3e 83 1f 3a bf
       0.16369624 -0.12463324 0.3753698 -0.72704333
0000e0 4f 3b 92 3c c6 91 03 bf f4 54 48 be 0f ef 36 3d
       0.017850546 -0.5139431 -0.19563657 0.044661578
0000f0 15 30 b6 bd ea 2b 9f 3e ef a7 8e 3e 02 eb 8d 3e
       -0.0889589 0.3108819 0.27862498 0.2771836
000100 fd 55 aa be ab f3 b9 3a 72 4a c1 3d b5 99 02 bc
       -0.3326873 0.0014186999 0.094380274 -0.007971217
000110 ed d0 bc bd ff 26 a1 3d 88 74 e6 bd 54 bb 5a 3c
       -0.09219537 0.07868766 -0.11252695 0.013350327
000120 fe 2e 45 3d 2d 1e d5 bd ea 76 0b be dc 84 a8 bd
       0.04814052 -0.10406146 -0.13619581 -0.08228466
000130 54 82 96 3b 04 1b 82 3d 57 61 8c 3d 73 9f f4 3d
       0.004593173 0.06352809 0.068545036 0.11944475
000140 51 87 2e 3e 06 bc e4 3e b6 78 bf 3c 43 f5 a2 be
       0.17043807 0.446747 0.02337299 -0.31827745
000150 d0 a9 89 3e 31 f6 a1 bd aa 4a 74 bb 1e 83 15 be
       0.2688737 -0.079082854 -0.0037275949 -0.14600798
000160 2a 49 41 be ca 83 5f bb 78 32 43 bb 4b cd aa bc
       -0.18875566 -0.0034105652 -0.002978472 -0.020849844
000170 2d d1 03 be 49 4a 86 3e ec 4b 34 3e 22 08 4b 3e
       -0.12872763 0.2622855 0.17607087 0.19827321
000180 62 81 03 be 36 0d cc 3d 87 ee f9 bd 17 11 46 3d
       -0.12842324 0.09963457 -0.122036986 0.048356142
000190 a1 4a 4b be b0 c1 19 be d4 cc 4b be b2 05 9c 3c
       -0.19852687 -0.15015292 -0.19902354 0.019045684
0001a0 0a 3c 2a 3e 38 aa 03 be 65 ac 53 3d 52 2b bf be
       0.16624466 -0.12857902 0.05167808 -0.37337738
0001b0 4a 27 a7 3e 5b 75 8a 3e 42 52 e0 3d b8 cc 91 3d
       0.32647163 0.2704266 0.109531894 0.07119125
0001c0 85 b7 f5 bd 1c 74 e1 bd b0 39 26 be 1e 03 77 3e
       -0.11997894 -0.11008474 -0.16232944 0.24122283
0001d0 dc b9 89 be 6b c4 4a 3d 4f d3 21 bb ed 07 72 3c
       -0.26899612 0.049503725 -0.00246926 0.0147723975
0001e0 e7 e0 26 bd 22 f6 15 3d a3 33 6a 3e be 12 66 bd
       -0.040741827 0.036611684 0.2287126 -0.056170218
0001f0 b2 d0 27 bb 35 2d 8e 3d 9c 3a ba 3e 25 af 2e 3e
       -0.002560657 0.06942216 0.3637284 0.17059
000200 c0 22 9b 3b e5 70 c9 3d f2 8c 65 be 8f a2 5f 3e
       0.004734367 0.09835986 -0.22417048 0.21839355
000210 c4 21 4f 3e 67 73 b0 bd 1d 2c 44 be a3 d8 86 be
       0.20227724 -0.08615761 -0.19157453 -0.26337156
000220 99 30 0a be 11 42 31 be bd 31 86 3d de 8d aa 3d
       -0.13495101 -0.17310359 0.065524556 0.0832784
000230 b8 50 02 3d 98 d0 d3 be 09 0b f6 bd 86 2e 1a bc
       0.03181526 -0.41370082 -0.120138235 -0.009410506
000240 d8 d5 04 be 14 bd 98 3c fc a5 59 bd 60 65 37 be
       -0.129722 0.018644847 -0.05313681 -0.17909765
000250 3a 30 ed bd fc af 2a be 31 6c d1 3d ee 9c 9e bd
       -0.11581464 -0.16668695 0.10225714 -0.07744776
000260 4d 08 1c be 0f a4 8b 3c 1f 62 5b 3e 4d a6 e4 bc
       -0.15237541 0.017046003 0.21424149 -0.02791133
000270 fc f5 22 be c1 6e b7 bd ac df 29 bd dd 99 c4 3c
       -0.15914148 -0.089566715 -0.041473076 0.023999149
000280 0f 2c e6 bd 3e 3c 67 3e d1 2c da 3d 3e a9 a2 be
       -0.11238872 0.22581574 0.10653079 -0.31769747
000290 15 8d 7f 3e dd 54 b6 be 9e 64 1d 3e 01 8b ee 3d
       0.24956162 -0.3561162 0.15370414 0.11647607
0002a0 4c a8 5b be 6c 2e 85 be f3 d3 0a be 17 13 32 be
       -0.21450919 -0.2601198 -0.13557415 -0.17390095
0002b0 39 89 0b be 73 ec e7 3c f1 71 34 be fd 76 87 3d
       -0.13626565 0.02831099 -0.1762159 0.06614492
0002c0 eb e3 c5 3e b2 00 fe 3d 14 e4 11 be 88 63 b5 3d
       0.3865045 0.12402476 -0.14247161 0.08856875
0002d0 7f 38 a2 3c 1d c2 16 bd 7d f9 e9 3d 89 89 bf bb
       0.01980233 -0.036806215 0.11424539 -0.005845253
0002e0 21 a6 35 3e d8 de e8 3e f7 9b 91 3c 08 60 56 be
       0.17739154 0.45482516 0.017774565 -0.2093507
0002f0 36 5a fe bd 97 5c 99 3d ba 9f 90 3e a0 18 6d be
       -0.1241955 0.07488363 0.28246862 -0.23153925
000300 b6 79 83 bc f6 ce b4 3c e6 86 6f 3e fe a0 55 3e
       -0.016049247 0.022071343 0.23391303 0.20862195
000310 d9 e2 91 3e fb e7 83 bd 6b 17 c8 3d 86 8f 98 bd
       0.28493384 -0.06440731 0.097700916 -0.0744925
000320 4d 5f 90 bd f7 63 1b bb 4a 5c a7 bd a1 ce a1 be
       -0.07049427 -0.0023710707 -0.081718996 -0.31602958
000330 46 2b 17 3d 48 3a 7a bd c0 0e 94 be f6 4d 5a be
       0.036906503 -0.061090738 -0.28917503 -0.21318802
000340 ba ec 5a bc 89 02 3e be 6b ca a3 bd f6 b3 8a 3d
       -0.013362104 -0.18555655 -0.079975925 0.06772606
000350 1b 49 5d be 89 f8 fd bb d2 19 8f bd 50 6e bc bd
       -0.21609919 -0.007750575 -0.06987347 -0.09200728
000360 20 b0 d7 bd 9a 6f 5d 3e 13 41 43 3d dd bc a7 3c
       -0.1053164 0.21624604 0.04766948 0.0204758
000370 4e 2d 6d bd 38 70 81 bd 19 a6 2c 3e 56 f7 34 3e
       -0.057904534 -0.06320232 0.16860236 0.17672476
000380 00 7b 96 bd 19 dd 5e be 3d 20 84 be 3e 70 1d 3e
       -0.07347679 -0.2176403 -0.25805846 0.15374848
000390 f3 d0 9e bd be f2 8e 3d 14 b1 73 3e 63 8c 8a be
       -0.07754698 0.06979893 0.23798019 -0.27060232
0003a0 07 38 1c 3e 93 2d 1a 3d 51 d1 50 bd a9 c4 35 3e
       0.15255748 0.03764112 -0.05098087 0.17750801
0003b0 c2 f3 18 3c ab f6 18 3e 1a ee c7 3d 11 bb 0b 3c
       0.00933546 0.14937846 0.09762211 0.008528487
0003c0 20 06 60 be 42 44 c2 3e 9d e5 fa 3d 89 80 89 3e
       -0.21877337 0.37942702 0.122508265 0.26855877
0003d0 4c 17 a3 3d 45 79 45 be 19 74 2a 3e 96 18 d5 3d
       0.07963428 -0.19284542 0.1664585 0.1040508
0003e0 10 02 47 bd e9 18 87 be b7 85 07 bf 26 95 14 be
       -0.04858595 -0.26386192 -0.5293841 -0.1451002
0003f0 3a 5f 5c 3b e8 ff 13 3e 8a bb d7 bd 5f aa 57 3e
       0.0033626095 0.14453089 -0.10533817 0.21061085
